model.pth (torch, 177984 bytes, 4 tensors)

0.weight f4 [256, 168]
00000000: 2060 43bc 10c6 f9bb 387f 71bc 7515 893d
00000010: d004 4e3c 9c80 c63c 8868 7d3c 82b8 303d
00000020: 14a8 52bd 34b4 3d3d b416 413d ba54 693d
00000030: 7d0f 4cbd 4014 713c e326 993d 383b 953c
00000040: 6057 5f3c 8638 ccbc e437 54bd a88d 3b3d
00000050: ae6c 713d ac76 eebc 28fa 2e3c 062e 2e3d
00000060: 40a1 29bb ec83 6ebd 819a 973d 6e88 663d
00000070: ccea a3bc 79f2 883d 7428 90bd 5a54 4d3d
00000080: 8e85 7cbd 90c2 9f3b 0088 aaba b850 2e3c
00000090: 20a2 c2bb 20e2 1d3b 5096 bb3c 1177 813d
000000a0: 1a76 dbbc 8e4a 713d bce2 a5bc c809 993c
000000b0: 3e7f 223d c813 3e3c e809 603c 7e81 283d
000000c0: d999 903d 6435 95bd 001a 8339 c0c1 29bb
000000d0: 6a19 8bbc 2bc4 8ebd 602d 3a3b edf1 973d
000000e0: a279 ebbc a14b 78bd d092 91bb bb37 07bd
000000f0: edd9 8a3d 44a2 3f3d e424 40bd 938a 97bd
00000100: 188b 793c 00c3 0c3c f8f6 da3c d828 bb3c
00000110: f007 edbb c008 d4ba 4c07 113d b8e8 113c
00000120: 2fc7 823d d967 973d 00e8 efb9 f80c 95bd
00000130: 8aed 3c3d 4685 633d 9093 113d 23bd 963d
00000140: 8fd8 30bd d89e 86bd 6955 83bd b882 0ebc
00000150: d87c 823c e878 343c 07a3 943d 3405 3e3d
00000160: c4e2 8c3c 0c7d a5bc 1005 b73c 66f2 4dbd
00000170: 2024 803b f8ce 2d3c d0ca 50bc ba7a 6a3d
00000180: f065 8ebd 289e f23c 4270 283d 2bfe 8f3d
00000190: daaf 75bd e40a 8cbd 50ce 45bd 0e4b 663d
000001a0: f64a e2bc 4653 20bd 4aef 2ebd aa8d 82bc
000001b0: b34f 0bbd 40fc 31bc 48df 65bd 6554 8a3d
000001c0: b0b9 19bc 2e28 53bd 1475 c2bc 884a 783c
000001d0: cef2 163d 1df1 6cbd 2009 043b 2235 a4bc
000001e0: 6b52 9b3d 8eb3 40bd 8cd5 9fbc 187f 1b3d
000001f0: 7667 383d 40ce 35bb 50c9 febb 18e1 453c
00000200: 5333 833d 9806 79bc 465c 5b3d d84c 4f3c
00000210: 89d9 853d 18ab 353c ce81 683d f01a 123c
00000220: 5ffc 903d 1456 9f3c 27e5 1cbd 1c15 1a3d
00000230: e0fe 643b 7772 28bd 10ab 98bd 4272 08bd
00000240: c95d 57bd e9a9 38bd 1d60 973d 1311 01bd
00000250: 40e2 223c 7e00 153d 8082 69bb f290 c1bc
00000260: 00f4 843c b455 a03c ca3b 09bd e090 1b3c
00000270: f07b 553c 48e8 94bd cac7 523d 6e62 d2bc
00000280: 64c1 29bd fa8a 2d3d d0f3 c9bb 08dd 1fbc
00000290: 6a5c 623d d80c 5dbd 4099 0fbb 29a2 60bd
000002a0: d0d2 f4bb 1e5d 303d 9093 09bc 4049 dc3c
000002b0: e078 1b3b 3464 59bd c9d4 04bd 366d 4cbd
000002c0: d80d 9dbc de99 c5bc 5b6c 93bd 7c28 123d
000002d0: 4f4f 00bd d0de 44bd c844 1dbc d4c1 75bd
000002e0: f688 7dbd 8e1f 53bd 4d82 9b3d ee30 81bd
000002f0: 6814 2c3d b2a7 dbbc 2c93 a13c 41c9 49bd
00000300: 4625 653d 9225 6c3d 2029 7bbc 95f6 81bd
00000310: 7caa 9ebc 60c4 7e3c 2a29 2f3d d0dd e83c
00000320: 8f59 9c3d a8ca 1c3c 216b 38bd 6c19 82bd
00000330: de57 5ebd 7aa8 10bd 3620 523d ce08 cabc
00000340: 03a4 80bd 4c20 a83c c6d2 113d 66ce 87bd
00000350: 7202 643d 7090 dc3c a0d4 c73b fdc5 993d
00000360: 30d5 f53b 88e4 7cbd 7669 2a3d aed1 4abd
00000370: 6b8a 923d 52ba 7e3d ac49 6ebd 6a69 7d3d
00000380: d9bf 863d c846 013c b1bd 62bd c0f8 1cbd
00000390: 46af 46bd 082d 1bbd 8eab 6e3d 40d2 583c
000003a0: 1408 3c3d 7228 7f3d 3abc 553d cc1f 87bd
000003b0: 365d 5f3d 8c1b 8ebc de95 333d 8c7d 033d
000003c0: 707b 8e3c 6152 66bd c9a9 76bd ae12 84bc
000003d0: cc5e abbc 6098 bb3c b856 71bc 79e9 25bd
000003e0: b7dc 883d 46cb 1a3d 9b4a 9abd 7659 6e3d
000003f0: c192 94bd 76e5 313d 80bb bcba 10b2 0f3c
-0.011924773 -0.007622488 -0.014739804 0.06693546 0.01257439 0.024231248 0.015466817 0.04314471
-0.051429823 0.046314433 0.047140792 0.056965567 -0.04981946 0.014714301 0.0747812 0.018216714
0.013631672 -0.024929296 -0.051811114 0.04578939 0.058941536 -0.029109322 0.010679759 0.04252436
-0.0025883466 -0.05823128 0.07402516 0.056282453 -0.02000942 0.06686873 -0.07038966 0.050129272
-0.061650805 0.0048754886 -0.0013010502 0.010639362 -0.005939737 0.002409108 0.022898823 0.06321538
-0.026789714 0.05890899 -0.020249717 0.018681422 0.03967213 0.011601396 0.013674237 0.04113912
0.07060594 -0.07285574 0.0002500564 -0.0025902838 -0.016979892 -0.0697101 0.0028408393 0.074191906
-0.028744522 -0.060619 -0.0044425502 -0.033012133 0.06779847 0.046785608 -0.04691018 -0.07399478
0.015230916 0.0085914135 0.026729092 0.022846624 -0.0072336122 -0.0016176924 0.03540735 0.008905582
0.063856475 0.07392854 -0.00045758486 -0.07277864 0.046124972 0.05554702 0.035541117 0.07360294
-0.043175276 -0.06573266 -0.06412775 -0.008698158 0.01592867 0.011015154 0.072576575 0.04639168
0.017197974 -0.020201229 0.022341281 -0.050279997 0.0039105564 0.010608427 -0.012743667 0.057245947
-0.06953037 0.02961643 0.041122682 0.070309006 -0.05998216 -0.06838015 -0.048292458 0.05622392
-0.027623635 -0.039141916 -0.042708673 -0.015936691 -0.034011554 -0.010863364 -0.05612114 0.06754378
-0.00938265 -0.05155199 -0.023737468 0.015154488 0.03685265 -0.05784713 0.002014704 -0.020044867
0.07584079 -0.047046237 -0.019511007 0.037963003 0.045020543 -0.0027741343 -0.007775463 0.012077592
0.06406274 -0.015199326 0.053554796 0.012652598 0.06535632 0.011088155 0.056764416 0.008917555
0.07079386 0.019450225 -0.038304474 0.037617788 0.0034941956 -0.041124787 -0.074545026 -0.03331209
-0.052579675 -0.045083914 0.07391379 -0.031510424 0.0099416375 0.036377423 -0.0035630763 -0.023628686
0.01622963 0.019572116 -0.033504285 0.00949499 0.013030037 -0.07270867 0.051460065 -0.0256817
-0.041444197 0.042368867 -0.006163098 -0.009757288 0.055263914 -0.053967327 -0.0021911412 -0.054842148
-0.00747142 0.043057553 -0.008396998 0.026890397 0.002372317 -0.053074077 -0.03242949 -0.04990884
-0.01917164 -0.024121221 -0.071984015 0.03568314 -0.031325635 -0.048064053 -0.009598918 -0.059999302
-0.061898194 -0.051543765 0.07593212 -0.06308161 0.04201165 -0.026813362 0.019723497 -0.049264196
0.05594375 0.057653017 -0.015329629 -0.0634586 -0.019368403 0.015549749 0.042763866 0.028426081
0.076342694 0.009569801 -0.04502404 -0.06352505 -0.054283015 -0.03531692 0.05130025 -0.024662402
-0.06281283 0.020523213 0.0356014 -0.06631164 0.055666395 0.026924342 0.006098345 0.075084664
0.0075022206 -0.061741382 0.04160448 -0.049516372 0.071553074 0.062189408 -0.058175728 0.06186811
0.06579561 0.007890411 -0.055356685 -0.038323164 -0.048506998 -0.037884742 0.058269076 0.013233721
0.04590614 0.06229443 0.05218146 -0.06597862 0.054532252 -0.01734712 0.043844096 0.032102153
0.017392844 -0.056230906 -0.060220513 -0.016122188 -0.020919226 0.022899806 -0.014730148 -0.04050586
0.06682723 0.037791513 -0.07533761 0.058190785 -0.072545536 0.04343172 -0.0014399141 0.008770481

0.bias f4 [256]
00000000: 88ac 3bbd eb98 983d eac2 95bd c410 d53c
00000010: a287 033d f425 febc a0c3 c03c 6c61 823c
00000020: 6b7e 47bd 0cb7 50bd 6a3e 4f3d 4028 2bbc
00000030: 20f5 383b 1496 c73c 2abe fbbc 6875 c73c
00000040: d0e6 cb3b 580c 283d 50b1 9bbc 1f93 25bd
00000050: 1a69 3abd 256b 39bd 0001 5bbb 319d 89bd
00000060: e1ce 2abd 620c 95bc 0008 3ab9 4a9b 4abd
00000070: 0f07 94bd c09b abbc 7505 933d 6024 a0bc
00000080: 7a60 533d a0fd aabb a6af 033d 2ff3 823d
00000090: c0a3 673c 3e4d 8bbd 6063 b0bc 48a8 dcbc
000000a0: cbf8 953d f30e 0dbd b1f1 8c3d 501f db3c
000000b0: 209f a63c 39a3 8b3d d85e d03c 70de c83c
000000c0: 7623 473d 1a76 283d c839 cf3c 0080 f339
000000d0: 4c0a d33c 6e91 673d 4d15 91bd 137f 833d
000000e0: 458b 96bd 301b b43c 0875 4fbc da40 57bd
000000f0: 282c 143d 8c49 04bd 4e28 13bd b87b cb3c
00000100: 67e6 8b3d 6b48 53bd 2ad5 7dbd 301e 80bb
00000110: 8e21 9fbc 94e3 103d c0c1 db3b e0fb 2cbb
00000120: e5e0 813d 204c 31bc f6dc 46bd 4c9d 61bd
00000130: 8438 db3c d8ba 583c 84c1 d33c 40f2 90bb
00000140: 0317 9bbd e070 6b3b 137c 92bd 8088 5d3b
00000150: 00ed 5d3c aa9f 8ebc 40cc 063d c9e7 923d
00000160: 00e0 693a 4dc3 973d f2f9 bfbc 0dfa 26bd
00000170: ae76 d2bc 796a 943d 6f68 0dbd 32a5 35bd
00000180: 20c0 9c3c 30f1 19bc 9591 2bbd b731 3bbd
00000190: 7429 90bd 02c2 493d b01e f9bb 67f0 8a3d
000001a0: ec9f e63c b0e1 2abc 7169 49bd 8b76 8ebd
000001b0: 40f5 c6bb f14d 923d c25f 94bd 3923 883d
000001c0: 2193 8ebd e32c 8cbd 50f1 883c a047 9ebb
000001d0: 2edd 723d dc5f eabc 0bda 933d e03f 7fbb
000001e0: dc3f bb3c 2e04 4b3d 4e58 5a3d 28d5 f9bc
000001f0: b803 c8bc ee14 1e3d e8a5 4dbd 0871 3fbd
00000200: f068 1a3c 0240 4f3d f05a 84bb a6ea 473d
00000210: a063 7a3b 16bc 20bd d4ce 9cbc 9c64 80bd
00000220: 7a18 79bd c08f 203b d294 0abd 625a 3e3d
00000230: f2e7 ebbc 1e1f bcbc 20ba b6bc 54eb 50bd
00000240: c4f9 123d 9abc 1b3d 9c9c 9cbd 74a2 103d
00000250: 6a62 593d 60ef 353d 4e70 643d e00a 423c
00000260: e049 7bbc 30b4 7e3c 80de 9bba b1f5 803d
00000270: 2983 853d 8efe 2f3d 40d0 273c 449a 40bd
00000280: f817 1cbd 20c9 e5bb 4e22 0a3d 607a 443c
00000290: 1da2 93bd b103 813d 14ef 73bd d059 5a3c
000002a0: 4086 e1ba 0066 263c c606 283d 8054 e33a
000002b0: fbe2 953d 0847 9bbd 1ca6 cbbc ea41 50bd
000002c0: 245a cb3c a0c2 993c f0cd c23b 6ee6 8ebd
000002d0: 5c78 063d 40e3 6e3b d070 3a3c 7a31 91bd
000002e0: 60c9 113d 5f5a 07bd aa4f 0a3d dcb8 2c3d
000002f0: 7506 8fbd 3685 2bbd 84aa 86bd 3450 423d
00000300: 50b7 c13c ae8b 593d 9e42 6f3d 98a8 1a3c
00000310: 4acd 633d 5c9f a73c 380a 0b3d f795 983d
00000320: 88a0 99bc 170f 973d 7c84 ba3c bdfe 873d
00000330: 4f5d 9a3d 6aaa 373d f05d f0bb ec0c 0fbd
00000340: 893b 8fbd 0037 393d bf06 8a3d 001b debb
00000350: 9a45 85bd d99d 9d3d f6e9 bdbc 82ad 693d
00000360: 9ae0 683d eae7 fcbc 1e16 753d 481e b53c
00000370: 585d 933c 9207 98bc 718f 95bd 36d0 0fbd
00000380: aa18 c8bc 27e0 803d 8009 c8ba e482 bebc
00000390: ec55 ad3c 000c 383c 2063 e63c d091 54bc
000003a0: a34e 873d e0e8 473c e56c 1abd 62ef 92bd
000003b0: fcda 8dbd a047 1f3b 5d54 973d add6 1ebd
000003c0: df23 8ebd 6adb 6abd cb21 913d e872 41bc
000003d0: e007 223d 9af4 793d 3ef4 7f3d 879c 8e3d
000003e0: d027 c9bb a231 8abd 98a5 0d3c 5382 50bd
000003f0: 60be 0c3d 20a8 c0bb 0575 913d 26b4 513d
-0.045818835 0.07451042 -0.073125675 0.026008971 0.03211177 -0.031023957 0.023530781 0.015915595
-0.048704546 -0.050955817 0.050596632 -0.010446608 0.0028222278 0.024363555 -0.030730326 0.024347976
0.0062225834 0.041027397 -0.019005448 -0.04042351 -0.04551039 -0.045268197 -0.0033417344 -0.06719435
-0.0417012 -0.018194381 -0.00017741323 -0.0494645 -0.07227909 -0.02094829 0.07178775 -0.019548595
0.05160568 -0.0052182227 0.032149933 0.0639404 0.014138162 -0.06801842 -0.02153176 -0.026935712
0.07322844 -0.034438085 0.068820365 0.02674833 0.020339549 0.068182416 0.02543585 0.024520129
0.048617803 0.041128255 0.025296107 0.0004644394 0.025761746 0.056535177 -0.07084141 0.06420722
-0.07350782 0.02198562 -0.01266218 -0.05255208 0.036174923 -0.032296702 -0.03592711 0.024839267
0.06831055 -0.051582735 -0.061970867 -0.0039098486 -0.01942518 0.035373285 0.0067064464 -0.0026395246
0.06341723 -0.010821372 -0.04855057 -0.05508165 0.026760347 0.013228141 0.025849111 -0.0044234097
-0.075727485 0.0035925433 -0.071525715 0.0033803284 0.013545275 -0.017410118 0.03290963 0.07173116
0.0008921623 0.074102975 -0.023434613 -0.04076581 -0.025691357 0.072468705 -0.034523424 -0.044346996
0.019134581 -0.0093958825 -0.041886885 -0.04570171 -0.070391566 0.049257286 -0.007602535 0.06784134
0.028152429 -0.010429785 -0.049172822 -0.06956204 -0.0060717165 0.071437724 -0.07244827 0.06647343
-0.06961656 -0.06844499 0.01671663 -0.0048303157 0.059292965 -0.028610162 0.07219323 -0.0038947985
0.022857599 0.049564533 0.05330687 -0.030497149 -0.024415836 0.03859418 -0.05020705 -0.046738654
0.009424433 0.050598152 -0.004039161 0.048807763 0.0038206354 -0.039241873 -0.019141592 -0.0626919
-0.06081436 0.0024499744 -0.033833332 0.046472915 -0.028797124 -0.022964057 -0.022305548 -0.051005676
0.035882726 0.03802166 -0.07647058 0.035311177 0.05307237 0.04441774 0.055771165 0.011843413
-0.015337437 0.01554589 -0.0011891872 0.06296862 0.065191574 0.04296737 0.010242522 -0.04702212
-0.038108796 -0.0070125014 0.03372412 0.011992067 -0.07208655 0.06299532 -0.059554175 0.013327077
-0.0017206147 0.010156155 0.041022085 0.0017343909 0.07318684 -0.075819075 -0.02485948 -0.05084411
0.024823256 0.018769562 0.00594496 -0.06977545 0.032829627 0.003645137 0.011379436 -0.07089515
0.035592437 -0.03304517 0.03376738 0.042168483 -0.069836535 -0.041875087 -0.06575492 0.04743977
0.02364698 0.053111725 0.05841314 0.00943961 0.0556157 0.02046173 0.033945292 0.074504785
-0.018753305 0.07375925 0.022768252 0.06640384 0.075373285 0.044840254 -0.007335417 -0.034924433
-0.06993777 0.045218468 0.06739568 -0.006778121 -0.06507416 0.07696123 -0.02318285 0.057050236
0.05685482 -0.030872304 0.059835546 0.022109166 0.017988846 -0.018558297 -0.0730275 -0.035110675
-0.024425823 0.06292754 -0.001526162 -0.023255773 0.021159135 0.01123333 0.028123438 -0.0129742175
0.06606796 0.012201518 -0.037701506 -0.07174565 -0.069265336 0.0024304166 0.07389138 -0.03877895
-0.069404356 -0.057338156 0.070865236 -0.011807181 0.03955829 0.061024286 0.062488787 0.06963449
-0.006138779 -0.06747748 0.008645438 -0.050905537 0.034361243 -0.005879417 0.07102398 0.051197194

2.weight f4 [3, 256]
00000000: 061f 5c3d e8b6 76bd 8e1c 753d bcaf 9abc
00000010: 10ed 553d 24af 153d f006 e93c 02e2 69bd
00000020: 8425 f73c c6eb 24bd 1ee4 66bd 3699 123d
00000030: 80e9 39ba f096 543c 9872 043d b0f5 3dbc
00000040: ea62 573d 0c1f dfbc 5c0d 9dbc 1842 29bc
00000050: fab7 3cbd 40aa 6b3d f8b7 b1bc 3adc 36bd
00000060: b46d 713d bc84 333d 0a79 68bd 5059 903b
00000070: 0c9b c3bc d00f 10bc eae9 263d 4012 1ebb
00000080: 1e0b 403d c209 703d 045a e7bc de22 0e3d
00000090: 9ac3 6abd 78be 553c ccfb e83c 62b2 743d
000000a0: 18c5 28bd e07a b33c 5c67 163d 680b f7bc
000000b0: b64f 413d b4a2 653d 802e 533c 1af7 46bd
000000c0: 70a4 18bc f012 463d 305c 9dbc 4617 75bd
000000d0: 2c24 6a3d 8c30 243d 7874 aabc 480c a03c
000000e0: 2c7e 89bc 6630 7f3d 8cd5 b33c 9086 793d
000000f0: f45f 973c c879 c13c 383f 5a3d 80df 06bb
00000100: 5413 743d 0005 8139 8a9d 683d b292 74bd
00000110: 0404 ca3c f490 94bc 60bf cc3b 7a3d 4e3d
00000120: a014 603d 2019 d73b f88f 22bc 4c48 b1bc
00000130: 10c9 de3c 48a0 683c d62b 03bd 0a63 293d
00000140: c0c9 96bb 18b3 0a3c 401f e6ba 8e01 4abd
00000150: ac50 7f3d 16f4 3fbd f041 91bb 6470 1c3d
00000160: acdf f6bc b2e0 68bd 08dd 433c a889 713c
00000170: 80d5 77bc 3a5f 563d 3c2f 47bd b0f9 2c3d
00000180: 503f ce3b a047 37bd f899 303c 4058 c73b
00000190: ce72 103d 68f2 e5bc 9a35 073d 802c e0bb
000001a0: c459 193d d8ae 16bd 701c 49bd 60b9 70bd
000001b0: bae9 0fbd 5cba 4dbd 0242 0f3d 1c04 cdbc
000001c0: c0d2 b2bb 7c2b d83c f00d 9ebc e07b 6fbb
000001d0: 605f a6bb 3c01 253d aa76 413d f8b0 5a3c
000001e0: 5009 d83c 2043 a63b 5a78 2abd c640 18bd
000001f0: a00e 4dbb f058 723c da22 0ebd 5858 413d
00000200: 041f 493d cc34 91bc e8bc ac3c f0f6 67bc
00000210: 885e 8d3c 92d2 54bd 7ec1 16bd 6083 cfbb
00000220: 5874 7fbc e8cb 17bd 128b 28bd ee21 263d
00000230: c87d 32bc b2e3 58bd 6c94 83bc ac75 353d
00000240: 0cc2 02bd ca20 6ebd 0047 203a 1803 1ebc
00000250: 929e 1b3d 9cb7 6abd 80ba a0bc bc1e 853c
00000260: 7a7c 5ebd e0ba 53bb a0fd 15bd 701f dcbc
00000270: c030 783b ea60 17bd 8ccb 333d 80cc 123b
00000280: 76de 54bd 0042 0fbb 5287 0d3d c038 003d
00000290: 144b 523d 0047 c6bb 48ba 1d3d e006 3f3b
000002a0: e09d 2ebb f0b9 9ebc 407d 3b3d 0a4b 70bd
000002b0: 30a0 61bc 7cad 11bd 8e7d 7abd 54f4 083d
000002c0: 4822 5cbd 704a d33b 20df 0a3d 005f aa3b
000002d0: 3e0e 3cbd 80de e9bb 1089 403d 60d3 49bb
000002e0: 78b3 a8bc 6e8a 49bd d019 0f3d 9200 033d
000002f0: 286e acbc 30a6 533c bc62 6bbd 9cd3 f93c
00000300: 3832 1cbd 8408 bbbc eed0 6d3d f026 f8bc
00000310: 202f 0e3d 6047 6c3c c619 363d 90cc 0f3c
00000320: 90a9 5ebd 54c3 dcbc c890 36bd 5433 5ebd
00000330: 92f7 593d 78e8 363d 0098 563c de64 1b3d
00000340: 104b 573c a6a1 36bd 1030 5bbc a6fd 1b3d
00000350: 600f 6dbb 065e 32bd b424 f43c a2e2 69bd
00000360: 4043 acba 8099 ffbb 00e2 313d f055 9d3c
00000370: d0ca 9fbb 0035 e639 9048 6a3c 608f 75bb
00000380: a2c0 063d aaff 1b3d a0cf 22bc 80c1 dbbc
00000390: f8e2 fcbc c46a 79bd 8436 45bd 88fa a53c
000003a0: a05b b23b d88c 013d cc1e 1c3d e4be 0dbd
000003b0: 064e 0abd a6bd 503d d0ef ecbb 9098 01bc
000003c0: 5493 c93c 40b1 6a3b 186c 323c 3489 633d
000003d0: 8c2b 43bd 6a6e 4bbd 0021 feba 6c32 49bd
000003e0: 2038 bbbc 00cd c5b9 5494 4dbd e4ce 29bd
000003f0: 0ce4 623d 22e7 573d 5829 e9bc 8082 fa3a
0.053740524 -0.060233027 0.059841685 -0.018882625 0.052228034 0.03654398 0.02844569 -0.057100303
0.030169256 -0.040263914 -0.056369893 0.035790645 -0.0007091984 0.012975439 0.032335848 -0.011594221
0.052584566 -0.027236484 -0.01917141 -0.010330699 -0.04607389 0.05753541 -0.021694168 -0.04464362
0.05894251 0.043827757 -0.056756057 0.004405178 -0.023877643 -0.0087928325 0.04075042 -0.0024119765
0.046885602 0.058603056 -0.028241165 0.03470122 -0.057315446 0.0130459 0.028440379 0.05974043
-0.04120359 0.021909177 0.036719665 -0.030156806 0.04719516 0.05606337 0.012889504 -0.0485755
-0.009316549 0.048357904 -0.019208997 -0.05983665 0.057163402 0.04008536 -0.02080749 0.019537106
-0.016783796 0.062302016 0.021952413 0.060919344 0.018478371 0.02361764 0.053282946 -0.0020579994
0.059588745 0.00024608523 0.056790866 -0.059710212 0.024660118 -0.018135525 0.0062483996 0.050351597
0.05470717 0.0065642744 -0.00992202 -0.02164092 0.027195483 0.01419837 -0.032024227 0.041354217
-0.004601687 0.008465551 -0.0017556921 -0.04931789 0.062332794 -0.046863638 -0.004432909 0.03819312
-0.030135952 -0.05685491 0.011954553 0.014742292 -0.015126586 0.05233691 -0.04862903 0.042230308
0.0062941685 -0.04474604 0.0107788965 0.0060835183 0.035265736 -0.02806969 0.033010103 -0.0068412423
0.037439123 -0.036787838 -0.049099386 -0.058770537 -0.03513501 -0.050226554 0.03497506 -0.025026374
-0.0054572523 0.026387922 -0.019293755 -0.003654234 -0.0050772876 0.04028438 0.047232307 0.013347857
0.026371628 0.00507392 -0.041618682 -0.037171148 -0.0031289235 0.014791712 -0.034701206 0.04720339
0.049101844 -0.01772537 0.021086171 -0.014157996 0.01725699 -0.051958628 -0.036805622 -0.0063328
-0.015591703 -0.037059695 -0.041148253 0.0405597 -0.010894246 -0.052951522 -0.016061984 0.044301674
-0.03192334 -0.05813674 0.00061140954 -0.009644292 0.03799302 -0.05730401 -0.01962018 0.016250007
-0.05431793 -0.003230743 -0.03661883 -0.02687046 0.0037870854 -0.03695766 0.04389529 0.0022399724
-0.051969968 -0.0021859407 0.03455288 0.03130412 0.05134113 -0.0060509443 0.03850773 0.0029148385
-0.0026644394 -0.019375771 0.045773745 -0.058665313 -0.013771102 -0.03556584 -0.061154895 0.033436134
-0.05374363 0.0064480826 0.033904195 0.005199313 -0.04591202 -0.00713712 0.047005713 -0.0030796155
-0.02059339 -0.049204282 0.034936726 0.031982966 -0.02104862 0.01291804 -0.057467207 0.030496411
-0.03813383 -0.022831209 0.05806058 -0.030292004 0.03471291 0.014421314 0.044458173 0.008776799
-0.054360926 -0.026948608 -0.044571668 -0.05424817 0.053214617 0.044655293 0.013097763 0.03793799
0.013140455 -0.044587754 -0.013378158 0.038083695 -0.0036172494 -0.0435467 0.029802658 -0.0571009
-0.0013142601 -0.007800281 0.04342842 0.019206017 -0.004876472 0.00043908507 0.014299527 -0.0037469491
0.032898553 0.038085617 -0.009937197 -0.026825666 -0.030869946 -0.060892835 -0.048147693 0.020261064
0.0054430515 0.03162846 0.038115308 -0.034605876 -0.033765815 0.050962113 -0.0072307363 -0.007909909
0.024606384 0.0035811216 0.010890029 0.05555077 -0.04764895 -0.049665846 -0.0019388497 -0.04912035
-0.02285391 -0.00037727505 -0.050190285 -0.041457072 0.055393264 0.05271066 -0.028462097 0.0019112378

2.bias f4 [3]
00000000: 00a0 d437 929a 163d ca8b 6cbd
2.5346875e-05 0.036768503 -0.0577505
