model.pth (torch, 30528 bytes, 4 tensors)

0.weight f4 [256, 24]
-0.116216674 0.017827734 0.054793328 -0.07466203 -0.095541894 -0.14136827 -0.1044873 0.0020881295
-0.053244323 -0.006379321 -0.19939618 0.18876234 -0.1860602 -0.10187415 0.05270663 0.05506715
-0.072192684 -0.078840554 0.14733717 -0.11969194 0.1478942 0.040174484 0.101154715 0.09842822
0.05281519 0.07240189 0.06559477 0.057195656 0.16693039 0.099107124 0.14441395 -0.20281336
-0.15275517 -0.054509565 -0.13715674 -0.14251488 -0.055965528 0.15924022 -0.12753399 0.11438661
0.045589134 -0.2020706 0.17212784 -0.10146693 0.07079172 0.039618906 0.122420065 0.18562166
-0.12051081 -0.08743799 -0.2011489 -0.09638551 0.12442213 0.13412276 -0.017465055 0.098053455
-0.05020772 0.05067852 -0.10280566 -0.13065194 0.043130755 -0.05398038 -0.1302267 0.18844703
0.17781824 0.13092771 0.013501659 -0.17203297 0.18416423 0.038333163 0.081463486 0.118870676
0.117640235 0.120456316 0.1588646 0.13886364 -0.1368754 0.19026215 0.03047125 0.0045775026
0.045230597 0.1271089 0.08909899 -0.129399 -0.11836535 0.1516369 -0.12983975 -0.16387072
0.063556604 0.14292076 -0.013363346 0.17671406 -0.105925746 -0.09498969 -0.13464983 0.12108807
0.12811874 -0.14722951 -0.035451405 0.18666251 0.0709466 0.034341544 -0.15997562 0.046898007
0.121130526 0.02556333 -0.14926864 -0.20034581 -0.10538783 0.11199343 0.05521965 0.06013745
0.14539744 0.15940721 -0.0027791262 0.16558653 0.10715711 0.1747661 0.025810292 -0.006706902
0.06875008 -0.1961684 -0.030237362 0.061185002 0.01025857 0.15612641 0.10153368 0.09473398
-0.13862911 0.085597485 0.12037265 -0.045160294 -0.06372319 0.08822194 -0.13910371 0.20033446
-0.041157946 -0.048563212 0.17684141 0.04360041 0.13672492 -0.18966028 -0.13105673 -0.09533221
-0.118564025 0.20271136 -0.11823608 -0.015319126 -0.06575409 0.11636784 -0.12103534 0.15933618
0.15262502 0.17004791 -0.17386703 0.15111402 -0.0064629763 -0.08917491 -0.10314912 0.03079178
-0.050529048 -0.16272604 -0.113356955 -0.008412302 -0.0551195 -0.15598078 0.057224184 0.14520784
-0.07517948 0.009328656 0.09028802 -0.15177645 -0.17693399 0.18932359 0.101789474 0.19084918
0.16673645 0.07830846 0.13874498 -0.120291 0.09645885 -0.03899817 0.0046325624 -0.03935319
-0.117012754 0.0077598426 0.12392539 0.057703912 0.115936965 -0.05543825 -0.12089181 -0.17855832
0.1556655 0.14893664 -0.024746256 -0.028474594 0.09108069 -0.0431078 0.03523673 -0.16631396
0.020523235 0.13945174 -0.15480521 -0.0022067279 -0.10629277 0.052056074 0.13248003 0.031062314
0.038447306 -0.19566849 -0.16997552 0.057872713 -0.05214201 0.0084056035 -0.042204227 -0.019921714
0.13893543 0.10804666 -0.1548414 0.108767964 0.021050053 -0.0626431 -0.057033896 -0.097259715
-0.120153055 0.1327309 -0.030357182 -0.09349944 -0.052506432 -0.104169674 -0.15448344 0.0968421
-0.06775213 0.08901584 0.14800498 0.07833299 -0.1548186 0.16602305 -0.0039726566 -0.09574611
0.15817012 0.1739332 -0.2055332 0.0757739 0.087181605 -0.01746441 -0.08140002 -0.068228364
0.19412515 -0.07006711 0.012904778 -0.0019185692 0.17011437 -0.11536999 -0.0069566816 -0.039039895
00000000: 0203 eebd 780b 923c f86e 603d 68e8 98bd
00000010: 78ab c3bd d8c2 10be 70fd d5bd 00d9 083b
00000020: b816 5abd a009 d1bb 832e 4cbe ea4a 413e
00000030: 9186 3ebe 65a3 d0bd e8e2 573d 188e 613d
00000040: c2d9 93bd 2877 a1bd 8edf 163e 0c21 f5bd
00000050: 9471 173e 008e 243d 342a cf3d bc94 c93d
00000060: be54 583d 7147 943d 8d56 863d fe45 6a3d
00000070: cdef 2a3e adf8 ca3d 40e1 133e 4eae 4fbe
00000080: da6b 1cbe 6c45 5fbd d172 0cbe 6cef 11be
00000090: 1c3c 65bd de0f 233e 4598 02be 8743 ea3d
000000a0: acbb 3a3d 98eb 4ebe 4842 303e e5cd cfbd
000000b0: 40fb 903d 6f47 223d 5fb7 fa3d 9b13 3e3e
000000c0: 5fce f6bd b012 b3bd faf9 4dbe c465 c5bd
000000d0: 08d1 fe3d 7a57 093e e012 8fbc 40d0 c83d
000000e0: 9ca6 4dbd 4894 4f3d c68b d2bd 9fc9 05be
000000f0: e0a9 303d 881a 5dbd 265a 05be 42f8 403e
00000100: fc15 363e ea11 063e 1036 5d3c 6929 30be
00000110: 8c95 3c3e 3c03 1d3d 54d6 a63d 7872 f33d
00000120: 5ded f03d cdb1 f63d 67ad 223e 4532 0e3e
00000130: 1129 0cbe 15d4 423e d89e f93c e0fe 953b
00000140: b843 393d d628 023e 8879 b63d 2c81 04be
00000150: 8869 f2bd b446 1b3e b6f4 04be bacd 27be
00000160: f729 823d d259 123e f0f1 5abc 88f4 343e
00000170: 99ef d8bd f489 c2bd a5e1 09be 06fd f73d
00000180: 8f31 033e 55c3 16be 7e35 11bd 7524 3f3e
00000190: 734c 913d b8a9 0c3d a6d0 23be 2018 403d
000001a0: 4813 f83d 306a d13c e1d9 18be 7427 4dbe
000001b0: 93d5 d7bd d05c e53d 002e 623d b052 763d
000001c0: 11e3 143e a53b 233e 0022 36bb 848f 293e
000001d0: 3075 db3d e2f5 323e 1b70 d33c 92c5 dbbb
000001e0: d8cc 8c3d 5ee0 48be 58b4 f7bc 209d 7a3d
000001f0: 9013 283c 9adf 1f3e e4f0 cf3d e403 c23d
00000200: caf4 0dbe bc4d af3d f085 f63d 00fa 38bd
00000210: 4e81 82bd b4ad b43d 3471 0ebe 7a24 4d3e
00000220: 3c95 28bd 38ea 46bd ea15 353e 5896 323d
00000230: 9e01 0c3e 4e36 42be bc33 06be 893d c3bd
00000240: b2d1 f2bd 9193 4f3e c225 f2bd 12fd 7abc
00000250: 15aa 86bd 4352 ee3d 60e1 f7bd 0629 233e
00000260: bc49 1c3e 0a21 2e3e 330a 32be a2bd 1a3e
00000270: 60c7 d3bb 56a1 b6bd d93f d3bd 0b3f fc3c
00000280: 8cf7 4ebd a8a1 26be b127 e8bd c0d3 09bc
00000290: fcc4 61bd 6db9 1fbe e863 6a3d 5db1 143e
000002a0: b3f7 99bd 38d7 183c ede8 b83d 496b 1bbe
000002b0: 2f2e 35be 0bde 413e 0077 d03d f86d 433e
000002c0: f6bc 2a3e 3060 a03d 2a13 0e3e 215b f6bd
000002d0: 388c c53d 8cbc 1fbd c0cc 973b d030 21bd
000002e0: 62a4 efbd 4746 fe3b 98cc fd3d f05a 6c3d
000002f0: 5c70 ed3d 3813 63bd 2096 f7bd fed7 36be
00000300: c766 1f3e d982 183e a9b8 cabc 8d43 e9bc
00000310: 8388 ba3d ce91 30bd 6454 103d 354e 2abe
00000320: 5820 a83c 70cc 0e3e 4285 1ebe c09e 10bb
00000330: 06b0 d9bd c038 553d d8a8 073e 6576 fe3c
00000340: ec7a 1d3d 525d 48be 100e 2ebe f00b 6d3d
00000350: dc92 55bd a8b7 093c 57de 2cbd dd32 a3bc
00000360: 1745 0e3e 9147 dd3d be8e 1ebe bdc1 de3d
00000370: 2971 ac3c 074b 80bd 609c 69bd 1a30 c7bd
00000380: ce12 f6bd 9cea 073e a0af f8bc a27c bfbd
00000390: fc10 57bd e956 d5bd e830 1ebe 2755 c63d
000003a0: a1c1 8abd f04d b63d 9e8e 173e 0c6d a03d
000003b0: c488 1ebe f201 2a3e 0f2d 82bb 8916 c4bd
000003c0: 59f7 213e 8b1b 323e 4c77 52be 592f 9b3d
000003d0: 458c b23d 8611 8fbc 0eb5 a6bd 50bb 8bbd
000003e0: bec8 463e 587f 8fbd 906e 533c 8078 fbba
000003f0: 7632 2e3e 1a47 ecbd e0f4 e3bb 4ce8 1fbd

0.bias f4 [256]
-0.03389979 0.06850505 -0.073125675 0.00398641 0.03811722 -0.031023957 0.029536108 -0.006296456
-0.05689493 -0.05696126 0.044591185 0.005524195 -0.007199107 0.01835861 -0.03505923 0.00846103
0.0062225834 0.041027397 0.00017562268 -0.025019126 -0.04551039 -0.045268197 -0.0033417344 -0.06719435
-0.0417012 -0.024199402 -0.022338286 -0.055469785 -0.05644895 -0.02094829 0.0665557 -0.008726304
0.07383579 0.00739523 0.038155302 0.06994572 0.008132892 -0.06801842 -0.02153176 -0.026935712
0.06722303 -0.034438085 0.074815616 0.0109908655 0.036388997 0.08444621 0.041499734 0.0023094034
0.05462275 0.06256087 0.025296107 -0.021607043 0.04777856 0.0625404 -0.07084141 0.0799139
-0.079513006 0.027991045 0.0027837397 -0.05255208 0.021410223 -0.04124262 -0.03592711 0.009047396
0.09021346 -0.048527084 -0.061970867 -0.009915265 -0.01942518 0.048657622 0.0007010241 -0.0026395246
0.06341723 -0.010821372 -0.042545278 -0.06108702 0.048945673 0.0052438583 0.0040613404 -0.0044234097
-0.08173279 0.00959717 -0.071525715 -0.0026251187 0.019550724 -0.02341546 0.026904205 0.07173116
-0.014811456 0.074102975 -0.014846404 -0.04076581 -0.003945195 0.0944435 -0.034523424 -0.03834155
0.02513997 -0.025365727 -0.05585898 -0.04570171 -0.06438619 0.027140953 -0.029103283 0.046542294
0.034157854 -0.010429785 -0.043167673 -0.091649145 -0.012077115 0.071437724 -0.06644294 0.06647343
-0.085640855 -0.046290986 0.038602225 -0.019635081 0.06529828 -0.037215628 0.08823434 -0.0038947985
0.022857599 0.06528424 0.036313158 -0.030497149 -0.030421263 0.032588795 -0.07243074 -0.046738654
0.015429772 0.034850758 0.003236951 0.048807763 0.0038206354 -0.055491444 -0.025146842 -0.0626919
-0.06504549 0.0024499744 -0.0496345 0.054740816 -0.028797124 -0.022964057 -0.04434525 -0.03167914
0.026023682 0.021836175 -0.07647058 0.045157764 0.059077792 0.038412377 0.045650188 0.011843413
-0.015337437 0.01554589 -0.022917401 0.05696335 0.07119695 0.034556217 0.032358333 -0.056611083
-0.05434715 -0.0070125014 0.039729398 0.005986833 -0.07208655 0.084716335 -0.065804526 -0.008611576
0.004284791 7.4218064e-05 0.057212304 -0.020322494 0.08859107 -0.081824414 -0.047060158 -0.04095591
0.014860793 0.00896118 0.011950392 -0.06977545 0.01660955 0.003645137 0.017384835 -0.09210305
0.04159709 -0.03905057 0.018945506 0.057899117 -0.069836535 -0.019793717 -0.07176024 0.06531
0.036125805 0.0471063 0.07452782 0.0034342106 0.07172662 0.0046149595 0.03995074 0.06849955
-0.039156538 0.05858774 0.03919419 0.050300326 0.09749194 0.06094315 -0.013340594 -0.028919179
-0.06993777 0.039213035 0.061390888 0.01211101 -0.048384607 0.0709559 -0.02318285 0.040784836
0.062860206 -0.036877707 0.07561097 0.042887446 0.017988846 -0.018558297 -0.082907185 -0.03117202
-0.008232517 0.06893295 -0.021750756 -0.023255773 -0.0010284174 -0.0016239708 0.022118052 0.0031930313
0.06606796 0.025607383 -0.021778254 -0.0860076 -0.09008504 0.024690777 0.079896584 -0.024355743
-0.047548227 -0.07017664 0.06103 -0.005801819 0.045562413 0.061024286 0.07201675 0.063629106
-0.01627658 -0.052029062 -0.0016001523 -0.050905537 0.034361243 -0.005879417 0.055000164 0.042527612
00000000: 82da 0abd 604c 8c3d eac2 95bd 6ea0 823b
00000010: cd20 1c3d f425 febc b5f5 f13c 8052 cebb
00000020: a80a 69bd 3650 69bd 3fa5 363d 4e04 b53b
00000030: 7de6 ebbb cc64 963c 449a 0fbd 22a0 0a3c
00000040: d0e6 cb3b 580c 283d 5b27 3839 e9f4 ccbc
00000050: 1a69 3abd 256b 39bd 0001 5bbb 319d 89bd
00000060: e1ce 2abd d33d c6bc c8fe b6bc 4934 63bd
00000070: 0437 67bd c09b abbc 5b4e 883d c6f8 0ebc
00000080: 3837 973d af53 f23b bc48 1c3d b43f 8f3d
00000090: d23f 053c 3e4d 8bbd 6063 b0bc 48a8 dcbc
000000a0: 3aac 893d f30e 0dbd ee38 993d 0813 343c
000000b0: a10c 153d 22f2 ac3d a0fb 293d 5c59 173b
000000c0: 1bbc 5f3d ea1f 803d c839 cf3c 4101 b1bc
000000d0: 74b3 433d 2e15 803d 4d15 91bd e6a9 a33d
000000e0: b7d7 a2bd 7a4d e53c 676f 363b da40 57bd
000000f0: 7e64 af3c 06ee 28bd 4e28 13bd 873b 143c
00000100: d6c1 b83d 56c4 46bd 2ad5 7dbd a373 22bc
00000110: 8e21 9fbc 374d 473d eec4 373a e0fb 2cbb
00000120: e5e0 813d 204c 31bc f543 2ebd 6236 7abd
00000130: 427b 483d acd4 ab3b fe14 853b 40f2 90bb
00000140: 8563 a7bd 733d 1d3c 137c 92bd 2f0a 2cbb
00000150: d728 a03c c7d1 bfbc 3566 dc3c c9e7 923d
00000160: c0ab 72bc 4dc3 973d 553e 73bc 0dfa 26bd
00000170: b246 81bb 986b c13d 6f68 0dbd 070c 1dbd
00000180: 57f2 cd3c c9cb cfbc 63cc 64bd b731 3bbd
00000190: e8dc 83bd b456 de3c 026a eebc 22a3 3e3d
000001a0: 1be9 0b3d b0e1 2abc 96d0 30bd 8cb2 bbbd
000001b0: 17df 45bc f14d 923d 3c13 88bd 3923 883d
000001c0: 7964 afbd 9e9b 3dbd 5e1d 1e3d c0d9 a0bc
000001d0: 1bbb 853d 6a6f 18bd 35b4 b43d e03f 7fbb
000001e0: dc3f bb3c beb3 853d 1bbd 143d 28d5 f9bc
000001f0: 0336 f9bc d47b 053d 9156 94bd 0871 3fbd
00000200: 28cd 7c3c abbf 0e3d 0723 543b a6ea 473d
00000210: a063 7a3b ff4a 63bd c000 cebc 9c64 80bd
00000220: 9236 85bd c08f 203b 8c4d 4bbd e837 603d
00000230: f2e7 ebbc 1e1f bcbc 5da3 35bd fcc1 01bd
00000240: 9e2f d53c c7e1 b23c 9c9c 9cbd 59f7 383d
00000250: 8efb 713d 4c56 1d3d b1fb 3a3d e00a 423c
00000260: e049 7bbc 30b4 7e3c 46bd bbbc 6752 693d
00000270: b5cf 913d d28a 0d3d 2c8a 043d 06e1 67bd
00000280: 1e9b 5ebd 20c9 e5bb 4bbb 223d 322d c43b
00000290: 1da2 93bd c27f ad3d 86c4 86bd 9117 0dbc
000002a0: 6f67 8c3b 85a5 9b38 7357 6a3d 5c7b a6bc
000002b0: 3c6f b53d 8f93 a7bd 27c2 40bd 62c1 27bd
000002c0: af7a 733c ead1 123c 94cb 433c 6ee6 8ebd
000002d0: c010 883c 40e3 6e3b a46a 8e3c 86a0 bcbd
000002e0: b661 2a3d 7ef3 1fbd 9b33 9b3c a027 6d3d
000002f0: 7506 8fbd 6f26 a2bc 08f7 92bd 40c1 853d
00000300: a7f8 133d 89f2 403d 0ba2 983d 7e10 613b
00000310: 68e5 923d 1639 973b 63a3 233d 7e49 8c3d
00000320: 9b62 20bd b3f9 6f3d 168a 203d b707 4e3d
00000330: dba9 c73d 869f 793d 8292 5abc eae7 ecbc
00000340: 893b 8fbd d99d 203d 0375 7b3d 426d 463c
00000350: f02e 46bd 5451 913d f6e9 bdbc 000e 273d
00000360: dabc 803d 140d 17bd edd9 9a3d bfaa 2f3d
00000370: 585d 933c 9207 98bc 3ecb a9bd 775c ffbc
00000380: aee1 06bc b82c 8d3d a42e b2bc e482 bebc
00000390: f6cb 86ba 6bdb d4ba eb30 b53c 2d42 513b
000003a0: a34e 873d 93c6 d13c 4f68 b2bc c124 b0bd
000003b0: 817e b8bd 5044 ca3c d2a0 a33d b285 c7bc
000003c0: eec1 42bd c5b8 8fbd 98fa 793d 2f1d bebb
000003d0: a79f 3a3d 9af4 793d 857d 933d fa4f 823d
000003e0: 7656 85bc 6d1c 55bd 34bc d1ba 5382 50bd
000003f0: 60be 0c3d 20a8 c0bb da47 613d 6f31 2e3d

2.weight f4 [3, 256]
0.070595585 -0.054227553 0.059841685 0.003925789 0.058233507 0.03654398 0.03445117 -0.034508035
0.052818425 -0.03425844 -0.05036442 0.05241601 0.021915888 0.018980948 0.048835475 0.004988776
0.052584566 -0.027236484 0.0034198742 0.0063614263 -0.04607389 0.05753541 -0.021694168 -0.04464362
0.05894251 0.04983323 -0.03421687 0.010410681 -0.0073082144 -0.0087928325 0.063476905 0.014118735
0.06952416 0.07523714 -0.022235658 0.040706694 -0.051309973 0.0130459 0.028440379 0.05974043
-0.035198115 0.021909177 0.04272514 -0.013648189 0.063754685 0.072811805 0.029632995 -0.02603875
-0.003311042 0.07089595 -0.019208997 -0.037150938 0.079785936 0.046090834 -0.02080749 0.03631995
-0.010778292 0.068307504 0.03855357 0.060919344 0.035277393 0.046116672 0.053282946 0.014514761
0.08209724 0.022754246 0.056790866 -0.05370474 0.024660118 -0.0015267938 0.012253903 0.050351597
0.05470717 0.0065642744 -0.0039165113 -0.01563541 0.049897756 0.036757916 -0.009150061 0.041354217
0.0014038199 0.014471054 -0.0017556921 -0.043312415 0.06833828 -0.040858164 0.0015725982 0.03819312
-0.013619835 -0.05685491 0.03473144 0.014742292 0.0074147657 0.075198166 -0.04862903 0.048235785
0.012299672 -0.0278397 0.027359717 0.0060835183 0.04127121 -0.005405346 0.055678565 0.015780583
0.043444596 -0.036787838 -0.043093912 -0.03623161 -0.029129507 -0.050226554 0.040980536 -0.025026374
0.011256911 0.04918023 0.0032496767 0.013050988 0.0009282194 0.062908016 0.063778825 0.013347857
0.026371628 0.021901546 -0.01896679 -0.037171148 0.002876582 0.02079722 -0.012151893 0.04720339
0.055107318 -0.0010746033 0.043597706 -0.014157996 0.01725699 -0.03529436 -0.030800134 -0.0063328
0.0070062717 -0.037059695 -0.024371596 0.057139676 -0.010894246 -0.052951522 0.0064476877 0.06680913
-0.009362641 -0.041544702 0.00061140954 0.013048066 0.043998495 -0.051298536 0.0029162457 0.016250007
-0.05431793 -0.003230743 -0.013947709 -0.020864952 0.009792589 -0.014276282 0.0665416 0.02479858
-0.035255626 -0.0021859407 0.040558353 0.037309594 0.05134113 0.016697003 0.0611961 0.025821555
0.0033410662 0.0034108937 0.06257631 -0.0360364 0.0027409657 -0.029560342 -0.03858233 0.056223437
-0.031091176 0.028994495 0.039909672 0.005199313 -0.029122364 -0.00713712 0.053011186 0.019583173
-0.01458788 -0.04319881 0.051635098 0.048622675 -0.02104862 0.03558185 -0.051461734 0.05318616
-0.021572817 -0.0168257 0.07457327 -0.024286497 0.051309355 0.030917905 0.050463647 0.014782303
-0.03154344 -0.010327656 -0.021971483 -0.037669934 0.075739354 0.06139175 0.019103272 0.043943465
0.013140455 -0.03858228 -0.0073726517 0.06078292 0.01903958 -0.037541226 0.029802658 -0.04042243
0.0046912483 -0.0017947735 0.060261875 0.04197933 -0.004876472 0.00043908507 0.037087344 0.013129565
0.04958692 0.04409109 0.012870256 -0.026825666 -0.008354586 -0.038347553 -0.04214222 0.037011817
0.0054430515 0.04824197 0.054627124 -0.01806751 -0.011014059 0.073885694 -0.001225229 0.008931515
0.047148153 0.020088697 0.033461586 0.061556242 -0.041643478 -0.049665846 0.01488269 -0.04311488
-8.1367565e-05 0.016342903 -0.027581718 -0.041457072 0.055393264 0.05271066 -0.011914064 0.018459156
00000000: 6b94 903d b61d 5ebd 8e1c 753d e8a3 803b
00000010: 4286 6e3d 24af 153d ac1c 0d3d 4c58 0dbd
00000020: 2258 583d 9452 0cbd ec4a 4ebd 2cb2 563d
00000030: f388 b33c ef7d 9b3c b507 483d e378 a33b
00000040: ea62 573d 0c1f dfbc f81f 603b 8373 d03b
00000050: fab7 3cbd 40aa 6b3d f8b7 b1bc 3adc 36bd
00000060: b46d 713d ee1d 4c3d fd26 0cbd 9091 2a3c
00000070: bf79 efbb d00f 10bc 2e00 823d 4452 673c
00000080: af62 8e3d ee15 9a3d 8e27 b6bc 10bc 263d
00000090: 682a 52bd 78be 553c ccfb e83c 62b2 743d
000000a0: e62b 10bd e07a b33c 8e00 2f3d a79c 5fbc
000000b0: d191 823d 5b1e 953d e5c0 f23c 374f d5bc
000000c0: 11fe 58bb e531 913d 305c 9dbc 952b 18bd
000000d0: cf66 a33d bec9 3c3d 7874 aabc 3ac4 143d
000000e0: 6f97 30bc cee4 8b3d 59ea 1d3d 9086 793d
000000f0: 077f 103d d6e4 3c3d 383f 5a3d 52cf 6d3c
00000100: 9922 a83d 1d67 ba3c 8a9d 683d 80f9 5bbd
00000110: 0404 ca3c b31e c8ba 98c4 483c 7a3d 4e3d
00000120: a014 603d 2019 d73b 1456 80bb d515 80bc
00000130: 9761 4c3d 788f 163d 23ea 15bc 0a63 293d
00000140: 6100 b83a 0018 6d3c 401f e6ba 5c68 31bd
00000150: f1f4 8b3d e45a 27bd a41f ce3a 6470 1c3d
00000160: ba25 5fbc b2e0 68bd 8e42 0e3d a889 713c
00000170: 90f7 f23b 7f01 9a3d 3c2f 47bd e392 453d
00000180: 9084 493c 1510 e4bc 7c21 e03c 4058 c73b
00000190: 000c 293d 541f b1bb 350f 643d 4846 813c
000001a0: f6f2 313d d8ae 16bd 3e83 30bd 9967 14bd
000001b0: 01a1 eebc 5cba 4dbd 35db 273d 1c04 cdbc
000001c0: e86e 383c 3571 493d 87f8 543b d0d3 553c
000001d0: c053 733a ebd5 803d 799e 823d f8b0 5a3c
000001e0: 5009 d83c df6a b33c 3e60 9bbc c640 18bd
000001f0: 0a85 3c3b ee5e aa3c bc18 47bc 5858 413d
00000200: 36b8 613d b4d9 8cba 8293 323d f0f6 67bc
00000210: 885e 8d3c d290 10bd 9050 fcbc 6083 cfbb
00000220: de94 e53b e8cb 17bd f1a6 c7bc 4b0b 6a3d
00000230: c87d 32bc b2e3 58bd 2047 d33b 3ad3 883d
00000240: c365 19bc c72a 2abd 0047 203a 8ec7 553c
00000250: c437 343d 6a1e 52bd 7c1e 3f3b bc1e 853c
00000260: 7a7c 5ebd e0ba 53bb ef84 64bc faec aabc
00000270: 1871 203c 11e7 69bc f646 883d 6426 cb3c
00000280: 3468 10bd 0042 0fbb 8420 263d f2d1 183d
00000290: 144b 523d 27c8 883c c3a8 7a3d ba87 d33c
000002a0: caf5 5a3b 4d89 5f3b 0228 803d e79a 13bd
000002b0: c6a1 333b 8828 f2bc 8108 1ebd 8c4a 663d
000002c0: ecb2 febc dd85 ed3c 5378 233d 005f aa3b
000002d0: 0692 eebc 80de e9bb 4222 593d e46c a03c
000002e0: 0102 6fbc 3cf1 30bd 537f 533d 9228 473d
000002f0: 286e acbc 46be 113d 8ac9 52bd bbd9 593d
00000300: 7ab9 b0bc 0dd6 89bc dfb9 983d 7af4 c6bc
00000310: c229 523d 8c47 fd3c f8b2 4e3d 7931 723c
00000320: b233 01bd 5435 29bc 8afd b3bc ca4b 1abd
00000330: 3c1d 9b3d ea75 7b3d 777e 9c3c 10fe 333d
00000340: 104b 573c 7408 1ebd 4996 f1bb 83f7 783d
00000350: e5f8 9b3c d4c4 19bd b424 f43c fd91 25bd
00000360: 0bb9 993b 9b3e ebba 28d5 763d 85f2 2b3d
00000370: d0ca 9fbb 0035 e639 e6e8 173d 631d 573c
00000380: a71b 4b3d dc98 343d c4dd 523c 80c1 dbbc
00000390: ace1 08bc 5312 1dbd 529d 2cbd b499 173d
000003a0: a05b b23b 5f99 453d b1c0 5f3d 5102 94bc
000003b0: 5074 34bc 6251 973d dd97 a0ba 7d55 123c
000003c0: 6c1e 413d 0d91 a43c 040f 093d 6622 7c3d
000003d0: 5a92 2abd 6a6e 4bbd 87d6 733c 3a99 30bd
000003e0: e1a3 aab8 8de1 853c 0ef3 e1bc e4ce 29bd
000003f0: 0ce4 623d 22e7 573d 3533 43bc a837 973c

2.bias f4 [3]
0.022497112 0.030763015 -0.07421629
00000000: dd4b b83c b802 fc3c b6fe 97bd
