model.pth (torch, 30528 bytes, 4 tensors)

0.weight f4 [256, 24]
0	0x3db73648	0.089459
1	0xbcd79ae8	-0.026318982
2	0xbd30a6b0	-0.043127716
3	0xbcf246c8	-0.029574767
4	0x3d0d0db0	0.03443688
5	0xbd96eef4	-0.073697954
6	0xbe215f72	-0.15759066
7	0x3e21f416	0.15815768
8	0x3dbb7254	0.09152666
9	0x3e0079d6	0.12546477
10	0x3dd01aa4	0.10161331
11	0x3d059c84	0.032619968
12	0xbd92f48e	-0.07175551
13	0xbe43c979	-0.19119824
14	0x3d3c26a0	0.045935273
15	0xbd3eecf8	-0.04661271
16	0xbe0d7aba	-0.13816348
17	0x3cc4eda8	0.024039105
18	0x3dcb9438	0.0994038
19	0xbe2c5cc9	-0.1683227
20	0x3d0fca78	0.0351052
21	0xbe2f0830	-0.17092967
22	0x3d338548	0.04382828
23	0x3e244062	0.16040185
24	0x3dc49e8c	0.09600553
25	0xbe4cf3f3	-0.20014934
26	0x3db69774	0.08915606
27	0x3cb59e38	0.022170171
28	0xbe4d7394	-0.20063621
29	0x3a400800	0.0007325411
30	0xbe505752	-0.2034581
31	0xbd16a8b8	-0.036781996
32	0x3de04044	0.10949758
33	0xbdc1512c	-0.094393104
34	0x3daa68c8	0.08320767
35	0x3e3fcf9c	0.1873154
36	0xbd6bce58	-0.05756983
37	0x3e238ff2	0.1597288
38	0xbc5331a0	-0.0128902495
39	0x3d84138c	0.06449041
40	0x3acd3180	0.0015655011
41	0x3e017bae	0.12644836
42	0xbde20c30	-0.11037481
43	0xbe155bd2	-0.14585808
44	0xbe010a9a	-0.126017
45	0xbdb8e0cd	-0.09027252
46	0xbe163e92	-0.14672306
47	0x3db5107c	0.08841035
48	0x3d92fbdc	0.071769446
49	0xbdc94866	-0.09828262
50	0x3c6c8880	0.014436841
51	0x3e3170cc	0.17328185
52	0xbe058ce2	-0.13042024
53	0x3e39216c	0.18079156
54	0xbd8c4858	-0.06849736
55	0x3e503976	0.2033442
56	0x3dcb6360	0.09931064
57	0x3dac1f7c	0.08404443
58	0xbd923244	-0.07138494
59	0x3e45eba4	0.19328171
60	0x3c5cded0	0.013480857
61	0xbe12b38f	-0.14326309
62	0x3d9d9848	0.07695061
63	0xbdfa1df8	-0.12212747
64	0x3e0d9fdc	0.13830513
65	0xbde9f6d0	-0.11424029
66	0xba8da080	-0.0010805279
67	0x3d701a28	0.058618695
68	0x3e0fdfba	0.14050189
69	0x3dd49ca0	0.10381436
70	0xbdd3e5d4	-0.103465706
71	0x3e0920de	0.13391444
72	0xbe0d7f08	-0.1381799
73	0xbe47f506	-0.19527063
74	0x3d66a638	0.056310862
75	0xbd87065c	-0.0659301
76	0x3d6a4f18	0.057204336
77	0x3c62a2b0	0.013832733
78	0x3cfa57b0	0.03055939
79	0x3d8e6b94	0.06954113
80	0x3d7a06c0	0.061041594
81	0xbdcb05e0	-0.0991323
82	0x3d86c44c	0.065804094
83	0xbe2cc9fe	-0.16873929
84	0xbe257608	-0.16158307
85	0x3d4b1d48	0.04958847
86	0x3e2a09b4	0.16605264
87	0xbd093dfc	-0.03350638
88	0x3e4cad52	0.19987991
89	0xbd3830e4	-0.0449685
90	0xbcf7f988	-0.030270353
91	0xbdb123ee	-0.08649431
92	0xbe2c8346	-0.16846952
93	0x3e4f5710	0.20248055
94	0x3e0b6d20	0.13615847
95	0xbc47dbd0	-0.0121984035
96	0xbe25898f	-0.16165756
97	0x3d9c11b4	0.07620564
98	0xbd855182	-0.06509687
99	0x3e4d7f34	0.20068055
100	0xbc972b98	-0.018453404
101	0xbe01b886	-0.12668046
102	0xbe185e21	-0.14879657
103	0xbceda958	-0.029011413
104	0x3e052f90	0.13006425
105	0xbd0545d4	-0.032537296
106	0xbc88f300	-0.016717434
107	0xbdc969a9	-0.09834606
108	0x3e35dd2e	0.17760155
109	0x3e3f7518	0.18697011
110	0xbe463c98	-0.19359052
111	0x3d347454	0.04405625
112	0x3d341620	0.043966413
113	0x3d8eff04	0.06982234
114	0x3cb33d38	0.021879777
115	0x3d9fa314	0.077947766
116	0xbd1ec624	-0.03876318
117	0xbdb06074	-0.08612147
118	0xbe02e494	-0.12782508
119	0xbdca10b6	-0.098664686
120	0x3e0cffd0	0.1376946
121	0x3e3440c0	0.17602825
122	0xbdb85b92	-0.09001841
123	0xbd8de916	-0.06929223
124	0xbc58d890	-0.013235226
125	0xbceffd80	-0.029295683
126	0x3dc24db8	0.0948748
127	0x3e3694fa	0.17830268
128	0x3d643230	0.055711925
129	0xbd2a7be8	-0.041622072
130	0x3e3907de	0.18069407
131	0x3d90d9cc	0.070727915
132	0x3d933178	0.0718717
133	0xbdb0ebb8	-0.0863871
134	0x3e104e22	0.14092305
135	0xbd998880	-0.074967384
136	0x3e4847ac	0.1955859
137	0xbe49d440	-0.19709873
138	0xbdd3d20a	-0.10342796
139	0x3e3d7f8a	0.18505684
140	0xbe1768ac	-0.14786023
141	0xbccacce0	-0.024755895
142	0xbdb1f86f	-0.08689963
143	0x3c0f1bd0	0.008734658
144	0x3d4f6848	0.05063656
145	0x3d6123c8	0.054965764
146	0xbd3dbfbc	-0.04632543
147	0x3e361cd6	0.17784438
148	0xbe0f3c4f	-0.1398785
149	0x3c726330	0.014794156
150	0xbc8de958	-0.017323181
151	0x3c2ec060	0.010665983
152	0xbddfa6e9	-0.109205075
153	0x3bb16340	0.005413443
154	0xbde5517b	-0.11197182
155	0x3b04d4c0	0.002026841
156	0x3d1b8f2c	0.037978336
157	0x3e461544	0.1934405
158	0xbe22ea61	-0.15909721
159	0xbe2a34d5	-0.16621716
160	0xbe1b062d	-0.15139075
161	0xbdd53cf6	-0.10412018
162	0xbda1816c	-0.078860134
163	0xbe05daa2	-0.13071683
164	0xbd8f098a	-0.06984241
165	0x3e3b04d8	0.18263566
166	0xbdc9ffeb	-0.098632656
167	0xbdedb611	-0.11606992
168	0xbcdc0d88	-0.026861921
169	0x3d0613f0	0.032733858
170	0x3e10f644	0.14156443
171	0xbe179a20	-0.14804888
172	0x3e071404	0.13191229
173	0x3d0296f8	0.031882256
174	0x3c88f910	0.016720325
175	0xbcf97390	-0.030450612
176	0xbd7748cc	-0.06037216
177	0xbd93d838	-0.07218975
178	0xbdad4bab	-0.08461698
179	0xbe50ab94	-0.20377952
180	0xbe38ea03	-0.18058018
181	0x3dd7009c	0.10498163
182	0x3c7cafc0	0.015422761
183	0x3d13eb90	0.03611332
184	0x3dbf0464	0.09327009
185	0xbd74804c	-0.059692666
186	0x3cddc538	0.02707158
187	0xbe0d17f1	-0.13778664
188	0xbcec08e0	-0.028812826
189	0xbe11e333	-0.14246826
190	0xbe104c6c	-0.14091653
191	0xbd9602f0	-0.07324779
192	0xbdf2b57a	-0.1185102
193	0xbe232837	-0.1593331
194	0xbe217af4	-0.15769559
195	0x3dff115c	0.12454483
196	0x3e0f7126	0.14008006
197	0xbc3f1360	-0.011662334
198	0x3daa446c	0.08313832
199	0xbdb7346f	-0.08945548
200	0x3d29d968	0.0414671
201	0xbdd5a1c6	-0.104312465
202	0x3e3fc82a	0.187287
203	0xbd924948	-0.071428835
204	0xbe431f75	-0.19054969
205	0x3e34d3ea	0.17658964
206	0xbd404f0c	-0.046950385
207	0x3dfb8c2c	0.12282595
208	0x3d7bf3a0	0.061511636
209	0x3c4f1990	0.012640372
210	0xbdfa865e	-0.1223266
211	0xbe39e907	-0.18155299
212	0xbe4f02a1	-0.20215847
213	0xbe0dfc2a	-0.13865724
214	0xbc58a3f0	-0.0132226795
215	0xbe42f3a9	-0.19038261
216	0x3d800c58	0.062523544
217	0xbcb55170	-0.022133559
218	0xbd0d87a0	-0.03455317
219	0xbe20db8c	-0.1570875
220	0xbe08ebde	-0.13371226
221	0xbdfa5162	-0.12222554
222	0xbe4ed65c	-0.20198959
223	0xbdab64ef	-0.08368861
224	0xbcf2ffe8	-0.029663041
225	0x3e47d140	0.19513416
226	0xbbbf68a0	-0.0058413297
227	0x3dcd628c	0.10028562
228	0x3e3ab89e	0.18234488
229	0xbbbd2480	-0.0057721734
230	0x3e306aac	0.17228192
231	0x3e2b7454	0.16743594
232	0xbd2d7f20	-0.042357564
233	0xbe023caa	-0.12718454
234	0xbde1e4db	-0.11029979
235	0x3dea2d1c	0.11434385
236	0x3c4365f0	0.011926159
237	0x3dc67ed4	0.09692159
238	0xbe0a3f4d	-0.1350071
239	0x3e08ddb6	0.13365826
240	0x3b8bc0a0	0.004264906
241	0xbd6d7f38	-0.057982653
242	0x3d469c58	0.048488945
243	0xbdaca1bf	-0.08429288
244	0xbcdb13d0	-0.026742846
245	0x3dc6f598	0.09714812
246	0xbdb30d54	-0.087427765
247	0xbe4e1592	-0.20125416
248	0x3df06930	0.11738813
249	0xbe0cad98	-0.13738096
250	0xbe0893a0	-0.13337564
251	0x3bea1ee0	0.007144794
252	0xbd847634	-0.06467858
253	0xbe2b8594	-0.16750175
254	0x3cebf300	0.028802395
255	0x3c5210b0	0.012821361

0.bias f4 [256]
0	0xbd0ada82	-0.03389979
1	0x3d9898eb	0.07451042
2	0xbd95c2ea	-0.073125675
3	0x3c23b4cc	0.009991836
4	0x3d0387a2	0.03211177
5	0xbcfe25f4	-0.031023957
6	0x3cc0c3a0	0.023530781
7	0xb998a225	-0.00029112506
8	0xbd80d1d7	-0.06290024
9	0xbd50b70c	-0.050955817
10	0x3d4f3e6a	0.050596632
11	0x3bb5044e	0.005524195
12	0xbc58578f	-0.013204469
13	0x3cc79614	0.024363555
14	0xbd0f9a44	-0.03505923
15	0x3c0aa022	0.00846103
16	0x3bcbe6d0	0.0062225834
17	0x3d280c58	0.041027397
18	0xbbbf0512	-0.005829462
19	0xbcccf4e9	-0.025019126
20	0xbd3a691a	-0.04551039
21	0xbd396b25	-0.045268197
22	0xbb5b0100	-0.0033417344
23	0xbd899d31	-0.06719435
24	0xbd2acee1	-0.0417012
25	0xbc950c62	-0.018194381
26	0xbc85cc71	-0.016332837
27	0xbd4a9b4a	-0.0494645
28	0xbd673704	-0.05644895
29	0xbcab9bc0	-0.02094829
30	0x3d780392	0.06055028
31	0xbc0ef8c6	-0.008726304
32	0x3d8aeab4	0.06783047
33	0x3bf253af	0.00739523
34	0x3d03afa6	0.032149933
35	0x3d82f32f	0.0639404
36	0x3c67a3c0	0.014138162
37	0xbd8b4d3e	-0.06801842
38	0xbcb06360	-0.02153176
39	0xbcdca848	-0.026935712
40	0x3d95f8cb	0.07322844
41	0xbd0d0ef3	-0.034438085
42	0x3d8cf1b1	0.068820365
43	0x3c341308	0.0109908655
44	0x3d150ca1	0.036388997
45	0x3dacf222	0.08444621
46	0x3d29fba0	0.041499734
47	0x3c083a65	0.008314704
48	0x3d472376	0.048617803
49	0x3d67a6b9	0.056555483
50	0x3ccf39c8	0.025296107
51	0xbc7fa287	-0.015602714
52	0x3d2b1a50	0.04177314
53	0x3d67916e	0.056535177
54	0xbd91154d	-0.07084141
55	0x3da3a9e6	0.0799139
56	0xbd968b45	-0.07350782
57	0x3cb41b30	0.02198562
58	0x3b366f67	0.0027837397
59	0xbd5740da	-0.05255208
60	0x3caf647e	0.021410223
61	0xbd418730	-0.047248065
62	0xbd13284e	-0.03592711
63	0x3c143b87	0.009047396
64	0x3dac754b	0.08420809
65	0xbd2e2b58	-0.042521805
66	0xbd7dd52a	-0.061970867
67	0xbb801e30	-0.0039098486
68	0xbc9f218e	-0.01942518
69	0x3d474d37	0.048657622
70	0x3bdbc1c0	0.0067064464
71	0xbb2cfbe0	-0.0026395246
72	0x3d81e0e5	0.06341723
73	0xbc314c20	-0.010821372
74	0xbd46dcf6	-0.04855057
75	0xbd619d4c	-0.05508165
76	0x3d2fe21e	0.04294025
77	0xba47a56b	-0.0007615897
78	0x3c24edc4	0.010066453
79	0xbb90f240	-0.0044234097
80	0xbd9b1703	-0.075727485
81	0x3b6b70e0	0.0035925433
82	0xbd927c13	-0.071525715
83	0x3b5d8880	0.0033803284
84	0x3c5ded00	0.013545275
85	0xbc8e9faa	-0.017410118
86	0x3d06cc40	0.03290963
87	0x3d92e7c9	0.07173116
88	0xbc72abc0	-0.014811456
89	0x3d97c34d	0.074102975
90	0xbc10dea3	-0.008842143
91	0xbd26fa0d	-0.04076581
92	0xbc2307a4	-0.009950552
93	0x3db51f0d	0.08843813
94	0xbd0d686f	-0.034523424
95	0xbd35a532	-0.044346996
96	0x3c9cc020	0.019134581
97	0xbccfcbc9	-0.025365727
98	0xbd64cc63	-0.05585898
99	0xbd3b31b7	-0.04570171
100	0xbd902974	-0.070391566
101	0x3d07c481	0.033146385
102	0xbcbd3d07	-0.02310039
103	0x3d573c2f	0.05254763
104	0x3ce69fec	0.028152429
105	0xbc2ae1b0	-0.010429785
106	0xbd496971	-0.049172822
107	0xbdaf65fb	-0.08564373
108	0xbbc6f540	-0.0060717165
109	0x3d924df1	0.071437724
110	0xbd945fc2	-0.07244827
111	0x3d882339	0.06647343
112	0xbdaf6479	-0.085640855
113	0xbd563492	-0.05229623
114	0x3d0584e5	0.03259744
115	0xbca0d9c0	-0.019635081
116	0x3d72dd2e	0.059292965
117	0xbd3107d7	-0.043220367
118	0x3db4b435	0.08823434
119	0xbb7f3fe0	-0.0038947985
120	0x3cbb3fdc	0.022857599
121	0x3d85b3be	0.06528424
122	0x3d2d563d	0.04231857
123	0xbcf9d528	-0.030497149
124	0xbcc803b8	-0.024415836
125	0x3d1e14ee	0.03859418
126	0xbd880a18	-0.0664255
127	0xbd3f7108	-0.046738654
128	0x3c1a68f0	0.009424433
129	0x3d0ebfab	0.034850758
130	0x3c176cc6	0.009242242
131	0x3d47eaa6	0.048807763
132	0x3b7a63a0	0.0038206354
133	0xbd634aff	-0.055491444
134	0xbc9cced4	-0.019141592
135	0xbd80649c	-0.0626919
136	0xbd71d460	-0.059040427
137	0x3b208fc0	0.0024499744
138	0xbd4b4d8c	-0.0496345
139	0x3d6037e8	0.054740816
140	0xbcebe7f2	-0.028797124
141	0xbcbc1f1e	-0.022964057
142	0xbd1d0a43	-0.038339864
143	0xbd1a5b20	-0.03768456
144	0x3ca3fd89	0.020018356
145	0x3cb2e1c7	0.021836175
146	0xbd9c9c9c	-0.07647058
147	0x3d519073	0.051163148
148	0x3d59626a	0.05307237
149	0x3d35ef60	0.04441774
150	0x3d226291	0.03964478
151	0x3c420ae0	0.011843413
152	0xbc7b49e0	-0.015337437
153	0x3c7eb430	0.01554589
154	0xbc8a8aff	-0.016911982
155	0x3d80f5b1	0.06296862
156	0x3d858329	0.065191574
157	0x3ce9f349	0.02855839
158	0x3cd7e2c8	0.026353255
159	0xbd803d0c	-0.06261644
160	0xbd5e9b1e	-0.05434715
161	0xbbe5c920	-0.0070125014
162	0x3d0a224e	0.03372412
163	0x3c447a60	0.011992067
164	0xbd93a21d	-0.07208655
165	0x3da13338	0.07871097
166	0xbd9310ff	-0.07180976
167	0xbb2acee3	-0.0026063256
168	0xbae18640	-0.0017206147
169	0xbbc25a92	-0.005931207
170	0x3d6a5773	0.057212304
171	0xbc6a928e	-0.014317168
172	0x3db56f3c	0.08859107
173	0xbd9b4708	-0.075819075
174	0xbd2828fc	-0.04105471
175	0xbd0f549a	-0.03499279
176	0x3c1118fc	0.008856054
177	0x3b41b52f	0.0029557457
178	0x3bc2cdf0	0.00594496
179	0xbd8ee66e	-0.06977545
180	0x3c8810c0	0.01660955
181	0x3b6ee340	0.003645137
182	0x3c3a70d0	0.011379436
183	0xbdb05476	-0.0860986
184	0x3d11c960	0.035592437
185	0xbd075a5f	-0.03304517
186	0x3c9b339b	0.018945506
187	0x3d6d27a0	0.057899117
188	0xbd8f0675	-0.069836535
189	0xbcd35680	-0.025798082
190	0xbd86aa84	-0.06575492
191	0x3d72e976	0.059304677
192	0x3d13f8a7	0.036125805
193	0x3d598bae	0.053111725
194	0x3d98a20b	0.07452782
195	0x3c1aa898	0.00943961
196	0x3d92e568	0.07172662
197	0x3b973916	0.0046149595
198	0x3d0b0a38	0.033945292
199	0x3d9895f7	0.074504785
200	0xbd07c970	-0.03315109
201	0x3d6ff9b3	0.05858774
202	0x3d07f10c	0.033188865
203	0x3d4e07b7	0.050300326
204	0x3dbb5d4a	0.09148653
205	0x3d799f86	0.06094315
206	0xbbf05df0	-0.007335417
207	0xbd0f0cec	-0.034924433
208	0xbd8f3b89	-0.06993777
209	0x3d393700	0.045218468
210	0x3d8a06bf	0.06739568
211	0x3bc81109	0.0061055464
212	0xbd5ec806	-0.054389976
213	0x3d9d9dd9	0.07696123
214	0xbcbde9f6	-0.02318285
215	0x3d270e00	0.040784836
216	0x3d68e09a	0.05685482
217	0xbcfce7ea	-0.030872304
218	0x3d9ad9ed	0.07561097
219	0x3d171194	0.036882
220	0x3c935d58	0.017988846
221	0xbc980792	-0.018558297
222	0xbdb617b9	-0.088912435
223	0xbcff5c77	-0.03117202
224	0xbc06e1ae	-0.008232517
225	0x3d80e027	0.06292754
226	0xbc80fc64	-0.01574535
227	0xbcbe82e4	-0.023255773
228	0x3ba3165e	0.0049770316
229	0x3b8f9266	0.0043814657
230	0x3ce66320	0.028123438
231	0x3b51422d	0.0031930313
232	0x3d874ea3	0.06606796
233	0x3cd1c693	0.025607383
234	0xbcb2684f	-0.021778254
235	0xbdb024c1	-0.0860076
236	0xbdac31f6	-0.08407967
237	0x3c9911f0	0.018685311
238	0x3d97545d	0.07389138
239	0xbcc785b2	-0.024355743
240	0xbd5b5b18	-0.05355367
241	0xbd8fb8c5	-0.07017664
242	0x3d6161cd	0.05502491
243	0xbc4172e8	-0.011807181
244	0x3d2207e0	0.03955829
245	0x3d79f49a	0.061024286
246	0x3d937d85	0.07201675
247	0x3d8e9c87	0.06963449
248	0xbcb688bf	-0.022282002
249	0xbd551c6d	-0.052029062
250	0xbbf93758	-0.0076054744
251	0xbd508253	-0.050905537
252	0x3d0cbe60	0.034361243
253	0xbbc0a820	-0.005879417
254	0x3d6147da	0.055000164
255	0x3d2e316f	0.042527612

2.weight f4 [3, 256]
0	0x3d90946b	0.070595585
1	0xbd76b6e8	-0.060233027
2	0x3d751c8e	0.059841685
3	0xbb084bea	-0.0020797201
4	0x3d55ed10	0.052228034
5	0x3d15af24	0.03654398
6	0x3ce906f0	0.02844569
7	0xbd25f17e	-0.040513508
8	0x3d3fbef0	0.04681295
9	0xbd24ebc6	-0.040263914
10	0xbd66e41e	-0.056369893
11	0x3d56b22c	0.05241601
12	0x3c82567c	0.01591038
13	0x3c5496f0	0.012975439
14	0x3d4807b5	0.048835475
15	0x3ba378e3	0.004988776
16	0x3d5762ea	0.052584566
17	0xbcdf1f0c	-0.027236484
18	0xbb2973b4	-0.0025856318
19	0x3bd07383	0.0063614263
20	0xbd3cb7fa	-0.04607389
21	0x3d6baa40	0.05753541
22	0xbcb1b7f8	-0.021694168
23	0xbd36dc3a	-0.04464362
24	0x3d716db4	0.05894251
25	0x3d3384bc	0.043827757
26	0xbd24c02f	-0.040222343
27	0x3b905950	0.004405178
28	0xbbef79bf	-0.0073082144
29	0xbc100fd0	-0.0087928325
30	0x3d6b672c	0.05747144
31	0x3c675244	0.014118735
32	0x3d821614	0.06351867
33	0x3d9a15ee	0.07523714
34	0xbce75a04	-0.028241165
35	0x3d0e22de	0.03470122
36	0xbd6ac39a	-0.057315446
37	0x3c55be78	0.0130459
38	0x3ce8fbcc	0.028440379
39	0x3d74b262	0.05974043
40	0xbd28c518	-0.04120359
41	0x3cb37ae0	0.021909177
42	0x3d16675c	0.036719665
43	0xbc5f9ca7	-0.013648189
44	0x3d8291d1	0.063754685
45	0x3d951e5b	0.072811805
46	0x3cf2c0e5	0.029632995
47	0xbd0340d7	-0.032044258
48	0xbc18a470	-0.009316549
49	0x3d84e54a	0.06489046
50	0xbc9d5c30	-0.019208997
51	0xbd30c4c7	-0.04315641
52	0x3d971a34	0.07378045
53	0x3d24308c	0.04008536
54	0xbcaa7478	-0.02080749
55	0x3d14c43a	0.03631995
56	0xbc897e2c	-0.016783796
57	0x3d7f3066	0.062302016
58	0x3d1dea59	0.03855357
59	0x3d798690	0.060919344
60	0x3d107f07	0.035277393
61	0x3d244ba4	0.0401112
62	0x3d5a3f38	0.053282946
63	0x3c6dcf52	0.014514761
64	0x3d9bd5fe	0.07609175
65	0x3c8934a8	0.016748741
66	0x3d689d8a	0.056790866
67	0xbd7492b2	-0.059710212
68	0x3cca0404	0.024660118
69	0xbac81eb3	-0.0015267938
70	0x3bccbf60	0.0062483996
71	0x3d4e3d7a	0.050351597
72	0x3d6014a0	0.05470717
73	0x3bd71920	0.0065642744
74	0xbc228ff8	-0.00992202
75	0xbcb1484c	-0.02164092
76	0x3d33c865	0.043892283
77	0x3cfbec8c	0.030752443
78	0xbc784f0c	-0.015155565
79	0x3d29630a	0.041354217
80	0xbb96c9c0	-0.004601687
81	0x3c0ab318	0.008465551
82	0xbae61f40	-0.0017556921
83	0xbd4a018e	-0.04931789
84	0x3d7f50ac	0.062332794
85	0xbd3ff416	-0.046863638
86	0xbb9141f0	-0.004432909
87	0x3d1c7064	0.03819312
88	0xbc5f25ba	-0.013619835
89	0xbd68e0b2	-0.05685491
90	0x3ceb52b5	0.028725961
91	0x3c7189a8	0.014742292
92	0x3ab8b6d4	0.0014092573
93	0x3d8db4e4	0.06919268
94	0xbd472f3c	-0.04862903
95	0x3d2cf9b0	0.042230308
96	0x3bce3f50	0.0062941685
97	0xbce41015	-0.0278397
98	0x3ce0217c	0.027359717
99	0x3bc75840	0.0060835183
100	0x3d1072ce	0.035265736
101	0xbc3af497	-0.011410854
102	0x3d4b7603	0.04967309
103	0x3c2027ac	0.0097750835
104	0x3d1959c4	0.037439123
105	0xbd16aed8	-0.036787838
106	0xbd491c70	-0.049099386
107	0xbd2d00cb	-0.042237084
108	0xbd0fe9ba	-0.03513501
109	0xbd4dba5c	-0.050226554
110	0x3d0f4202	0.03497506
111	0xbccd041c	-0.025026374
112	0x3c386ee8	0.011256911
113	0x3d30d803	0.043174755
114	0xbb349b26	-0.0027558296
115	0x3c55d3d0	0.013050988
116	0xbba65f60	-0.0050772876
117	0x3d6912a7	0.056902554
118	0x3d829e79	0.063778825
119	0x3c5ab0f8	0.013347857
120	0x3cd80950	0.026371628
121	0x3cb36adf	0.021901546
122	0xbccc92b4	-0.024972297
123	0xbd1840c6	-0.037171148
124	0xbb4d0ea0	-0.0031289235
125	0x3c7258f0	0.014791712
126	0xbc94bed2	-0.018157396
127	0x3d415858	0.04720339
128	0x3d491f04	0.049101844
129	0xba8cd9b4	-0.0010746033
130	0x3d19fa50	0.037592232
131	0xbc67f6f0	-0.014157996
132	0x3c8d5e88	0.01725699
133	0xbd1090d2	-0.03529436
134	0xbd16c17e	-0.036805622
135	0xbbcf8360	-0.0063328
136	0x3a832c0e	0.0010007636
137	0xbd17cbe8	-0.037059695
138	0xbcc7a6f1	-0.024371596
139	0x3d6a0b4b	0.057139676
140	0xbc327dc8	-0.010894246
141	0xbd58e3b2	-0.052951522
142	0x39e7d458	0.00044217962
143	0x3d790d40	0.06080365
144	0xbc7bcaac	-0.015368145
145	0xbd2a2ac7	-0.041544702
146	0x3a204700	0.00061140954
147	0x3be6c54c	0.0070425626
148	0x3d1b9e92	0.03799302
149	0xbd6ab79c	-0.05730401
150	0xbb4a7531	-0.0030892605
151	0x3c851ebc	0.016250007
152	0xbd5e7c7a	-0.05431793
153	0xbb53bae0	-0.003230743
154	0xbca374ed	-0.019953215
155	0xbcdc1f70	-0.02687046
156	0x3b7830c0	0.0037870854
157	0xbca625ff	-0.02028179
158	0x3d77f4b7	0.060536113
159	0x3c99f3ed	0.01879307
160	0xbd106834	-0.035255626
161	0xbb0f4200	-0.0021859407
162	0x3d0d8752	0.03455288
163	0x3d0038c0	0.03130412
164	0x3d524b14	0.05134113
165	0x3c2f2b66	0.010691499
166	0x3d620f91	0.055190627
167	0x3ca25544	0.019816048
168	0xbb2e9de0	-0.0026644394
169	0xbb2a0a60	-0.0025946125
170	0x3d802802	0.06257631
171	0xbd2c3419	-0.04204187
172	0x3b33a1c6	0.0027409657
173	0xbd11ad7c	-0.03556584
174	0xbd36a1b3	-0.044587802
175	0x3d4db15a	0.050217964
176	0xbd17f2ad	-0.037096668
177	0x3cbc5366	0.022988986
178	0x3d0adf20	0.033904195
179	0x3baa5f00	0.005199313
180	0xbcee9206	-0.029122364
181	0xbbe9de80	-0.00713712
182	0x3d408910	0.047005713
183	0x3c5e74db	0.013577665
184	0xbca8b378	-0.02059339
185	0xbd498a6e	-0.049204282
186	0x3d537f53	0.051635098
187	0x3d472892	0.048622675
188	0xbcac6e28	-0.02104862
189	0x3cf24a26	0.029576372
190	0xbd6b62bc	-0.057467207
191	0x3d414089	0.047180686
192	0xbcb0b97a	-0.021572817
193	0xbcbb0884	-0.022831209
194	0x3d98b9df	0.07457327
195	0xbcf826f0	-0.030292004
196	0x3d5229c2	0.051309355
197	0x3cfd478c	0.030917905
198	0x3d3619c6	0.044458173
199	0x3c0fcc90	0.008776799
200	0xbd19cce4	-0.037548915
201	0xbc293554	-0.010327656
202	0xbce53001	-0.027976992
203	0xbd1a4bca	-0.037669934
204	0x3d8ed0a1	0.069733866
205	0x3d7b75ea	0.06139175
206	0x3c569800	0.013097763
207	0x3d1b64de	0.03793799
208	0x3c574b10	0.013140455
209	0xbd36a1a6	-0.044587754
210	0xbc5b3010	-0.013378158
211	0x3d605e50	0.054777443
212	0x3c558cdc	0.013034072
213	0xbd325e06	-0.0435467
214	0x3cf424b4	0.029802658
215	0xbd2591fd	-0.04042243
216	0xbaac4340	-0.0013142601
217	0xbbff9980	-0.007800281
218	0x3d76d528	0.060261875
219	0x3d135953	0.035973858
220	0xbb9fcad0	-0.004876472
221	0x39e63500	0.00043908507
222	0x3cfe9f68	0.03108187
223	0x3c571d63	0.013129565
224	0x3d4b1ba7	0.04958692
225	0x3d1bffaa	0.038085617
226	0x3be0f1b9	0.006864753
227	0xbcdbc180	-0.026825666
228	0xbc6b4694	-0.014360089
229	0xbd35ab85	-0.044353027
230	0xbd453684	-0.048147693
231	0x3d1799b4	0.037011817
232	0x3bb25ba0	0.0054430515
233	0x3d45995f	0.04824197
234	0x3d5fc0b1	0.054627124
235	0xbc940251	-0.01806751
236	0xbc8b6c9c	-0.017019562
237	0x3d8b04c7	0.067880206
238	0xbbecefd0	-0.0072307363
239	0x3c12557d	0.008931515
240	0x3d28853a	0.04114268
241	0x3ca4910d	0.020088697
242	0x3ce0eba0	0.027456105
243	0x3d638934	0.05555077
244	0xbd432b8c	-0.04764895
245	0xbd4b6e6a	-0.049665846
246	0x3c73d687	0.01488269
247	0xbd49326c	-0.04912035
248	0xbbc77469	-0.006086875
249	0x3c85e18d	0.016342903
250	0xbd0992c1	-0.03358722
251	0xbd29cee4	-0.041457072
252	0x3d62e40c	0.055393264
253	0x3d57e722	0.05271066
254	0xbc433335	-0.011914064
255	0x3c9737a8	0.018459156

2.bias f4 [3]
0	0x3c87196a	0.01649161
1	0x3d169a92	0.036768503
2	0xbd97feb6	-0.07421629
