model.pth (torch, 30528 bytes, 4 tensors)

0.weight f4 [256, 24]
-0.116216674 0.017827734 0.054793328 -0.07466203 -0.095541894 -0.14136827 -0.1044873 0.0020881295
-0.053244323 -0.006379321 -0.19939618 0.18876234 -0.1860602 -0.10187415 0.05270663 0.05506715
-0.072192684 -0.078840554 0.14733717 -0.11969194 0.1478942 0.040174484 0.101154715 0.09842822
0.058820665 0.07840738 0.07160026 0.06320113 0.17293584 0.10511261 0.14441395 -0.20281336
-0.15275517 -0.054509565 -0.13715674 -0.14251488 -0.055965528 0.15924022 -0.12753399 0.120392025
0.051594585 -0.19606522 0.17212784 -0.10146693 0.07079172 0.045624375 0.12842554 0.19162709
-0.12051081 -0.08743799 -0.2011489 -0.09638551 0.12442213 0.13412276 -0.017465055 0.098053455
-0.05020772 0.05067852 -0.10280566 -0.13065194 0.043130755 -0.05398038 -0.1302267 0.18844703
0.17781824 0.13092771 0.013501659 -0.17203297 0.18416423 0.038333163 0.081463486 0.118870676
0.12364572 0.1264618 0.16487005 0.14486909 -0.13086995 0.1962676 0.03047125 0.0045775026
0.045230597 0.1271089 0.08909899 -0.129399 -0.11836535 0.1516369 -0.12983975 -0.15786535
0.06956202 0.14892614 -0.013363346 0.17671406 -0.105925746 -0.08898421 -0.1286444 0.12709355
0.12211329 -0.15323496 -0.04145688 0.18065706 0.06494111 0.028336063 -0.15997562 0.046898007
0.121130526 0.02556333 -0.14926864 -0.20034581 -0.10538783 0.11199343 0.05521965 0.054131985
0.13939202 0.15340182 -0.0027791262 0.16558653 0.10715711 0.16876066 0.01980479 -0.012712404
0.06875008 -0.1961684 -0.030237362 0.061185002 0.01025857 0.15612641 0.10153368 0.09473398
-0.13862911 0.085597485 0.12037265 -0.045160294 -0.06372319 0.08822194 -0.13910371 0.20033446
-0.041157946 -0.048563212 0.17684141 0.04360041 0.13672492 -0.18966028 -0.13105673 -0.09533221
-0.12456951 0.19670591 -0.12424157 -0.021324635 -0.07175958 0.11036235 -0.12103534 0.15933618
0.15262502 0.17004791 -0.17386703 0.15111402 -0.0064629763 -0.08917491 -0.10314912 0.024786368
-0.056534454 -0.16873127 -0.113356955 -0.008412302 -0.0551195 -0.1619862 0.05121872 0.13920242
-0.06917399 0.015334159 0.09629351 -0.145771 -0.17092854 0.19532904 0.101789474 0.19084918
0.16673645 0.07830846 0.13874498 -0.120291 0.09645885 -0.03899817 0.0046325624 -0.033347785
-0.111007385 0.013765171 0.12392539 0.057703912 0.115936965 -0.049432784 -0.114886336 -0.1725529
0.14966005 0.1429312 -0.030751765 -0.034480095 0.0850752 -0.049113274 0.03523673 -0.16631396
0.020523235 0.13945174 -0.15480521 -0.0022067279 -0.10629277 0.052056074 0.13248003 0.025056899
0.0324419 -0.20167372 -0.16997552 0.057872713 -0.05214201 0.0024001151 -0.048209697 -0.025927186
0.14494088 0.11405215 -0.14883594 0.11477345 0.027055562 -0.056637645 -0.057033896 -0.097259715
-0.120153055 0.1327309 -0.030357182 -0.09349944 -0.052506432 -0.104169674 -0.15448344 0.102847576
-0.061746657 0.09502125 0.14800498 0.07833299 -0.1548186 0.17202848 0.0020328462 -0.08974062
0.16417557 0.17993864 -0.19952776 0.08177939 0.093187094 -0.011458904 -0.08140002 -0.068228364
0.19412515 -0.07006711 0.012904778 -0.0019185692 0.17011437 -0.11536999 -0.0069566816 -0.03303443
00000000: 0203 eebd 780b 923c f86e 603d 68e8 98bd
00000010: 78ab c3bd d8c2 10be 70fd d5bd 00d9 083b
00000020: b816 5abd a009 d1bb 832e 4cbe ea4a 413e
00000030: 9186 3ebe 65a3 d0bd e8e2 573d 188e 613d
00000040: c2d9 93bd 2877 a1bd 8edf 163e 0c21 f5bd
00000050: 9471 173e 008e 243d 342a cf3d bc94 c93d
00000060: f0ed 703d 0c94 a03d 28a3 923d 986f 813d
00000070: 1816 313e 4845 d73d 40e1 133e 4eae 4fbe
00000080: da6b 1cbe 6c45 5fbd d172 0cbe 6cef 11be
00000090: 1c3c 65bd de0f 233e 4598 02be 1890 f63d
000000a0: d854 533d 52c5 48be 4842 303e e5cd cfbd
000000b0: 40fb 903d a0e0 3a3d fc81 033e e439 443e
000000c0: 5fce f6bd b012 b3bd faf9 4dbe c465 c5bd
000000d0: 08d1 fe3d 7a57 093e e012 8fbc 40d0 c83d
000000e0: 9ca6 4dbd 4894 4f3d c68b d2bd 9fc9 05be
000000f0: e0a9 303d 881a 5dbd 265a 05be 42f8 403e
00000100: fc15 363e ea11 063e 1036 5d3c 6929 30be
00000110: 8c95 3c3e 3c03 1d3d 54d6 a63d 7872 f33d
00000120: f839 fd3d 347f 013e b2d3 283e 9058 143e
00000130: c602 06be 60fa 483e d89e f93c e0fe 953b
00000140: b843 393d d628 023e 8879 b63d 2c81 04be
00000150: 8869 f2bd b446 1b3e b6f4 04be 74a7 21be
00000160: 8876 8e3d 1880 183e f0f1 5abc 88f4 343e
00000170: 99ef d8bd 5a3d b6bd 5cbb 03be d024 023e
00000180: 8816 fa3d a0e9 1cbe b0ce 29bd 2afe 383e
00000190: d8ff 843d 0821 e83c a6d0 23be 2018 403d
000001a0: 4813 f83d 306a d13c e1d9 18be 7427 4dbe
000001b0: 93d5 d7bd d05c e53d 002e 623d 80b9 5d3d
000001c0: c8bc 0e3e 5e15 1d3e 0022 36bb 848f 293e
000001d0: 3075 db3d 98cf 2c3e a83d a23c b047 50bc
000001e0: d8cc 8c3d 5ee0 48be 58b4 f7bc 209d 7a3d
000001f0: 9013 283c 9adf 1f3e e4f0 cf3d e403 c23d
00000200: caf4 0dbe bc4d af3d f085 f63d 00fa 38bd
00000210: 4e81 82bd b4ad b43d 3471 0ebe 7a24 4d3e
00000220: 3c95 28bd 38ea 46bd ea15 353e 5896 323d
00000230: 9e01 0c3e 4e36 42be bc33 06be 893d c3bd
00000240: 4d1e ffbd 466d 493e 5d72 febd 00b1 aebc
00000250: b0f6 92bd a805 e23d 60e1 f7bd 0629 233e
00000260: bc49 1c3e 0a21 2e3e 330a 32be a2bd 1a3e
00000270: 60c7 d3bb 56a1 b6bd d93f d3bd c80c cb3c
00000280: ac90 67bd e4c7 2cbe b127 e8bd c0d3 09bc
00000290: fcc4 61bd b6df 25be b8ca 513d 148b 0e3e
000002a0: 18ab 8dbd 203c 7b3c 8835 c53d fe44 15be
000002b0: e407 2fbe 5604 483e 0077 d03d f86d 433e
000002c0: f6bc 2a3e 3060 a03d 2a13 0e3e 215b f6bd
000002d0: 388c c53d 8cbc 1fbd c0cc 973b b097 08bd
000002e0: d757 e3bd 5087 613c 98cc fd3d f05a 6c3d
000002f0: 5c70 ed3d 087a 4abd 8749 ebbd b5b1 30be
00000300: 7c40 193e 8e5c 123e 20eb fbbc 003b 0dbd
00000310: e83b ae3d 002b 49bd 6454 103d 354e 2abe
00000320: 5820 a83c 70cc 0e3e 4285 1ebe c09e 10bb
00000330: 06b0 d9bd c038 553d d8a8 073e 2044 cd3c
00000340: cce1 043d 8e83 4ebe 100e 2ebe f00b 6d3d
00000350: dc92 55bd 404b 1d3b 8877 45bd 4065 d4bc
00000360: 626b 143e 2c94 e93d 7368 18be 580e eb3d
00000370: a0a3 dd3c e0fc 67bd 609c 69bd 1a30 c7bd
00000380: ce12 f6bd 9cea 073e a0af f8bc a27c bfbd
00000390: fc10 57bd e956 d5bd e830 1ebe c0a1 d23d
000003a0: 10ea 7cbd 809a c23d 9e8e 173e 0c6d a03d
000003b0: c488 1ebe 3c28 303e 8039 053b eec9 b7bd
000003c0: a41d 283e d641 383e 0151 4cbe f47b a73d
000003d0: e0d8 be3d 20be 3bbc 0eb5 a6bd 50bb 8bbd
000003e0: bec8 463e 587f 8fbd 906e 533c 8078 fbba
000003f0: 7632 2e3e 1a47 ecbd e0f4 e3bb 1c4f 07bd

0.bias f4 [256]
-0.03389979 0.07451042 -0.073125675 0.009991836 0.03211177 -0.031023957 0.023530781 -0.00029112506
-0.06290024 -0.050955817 0.050596632 0.005524195 -0.013204469 0.024363555 -0.03505923 0.00846103
0.0062225834 0.041027397 -0.005829462 -0.025019126 -0.04551039 -0.045268197 -0.0033417344 -0.06719435
-0.0417012 -0.018194381 -0.016332837 -0.0494645 -0.05644895 -0.02094829 0.06055028 -0.008726304
0.06783047 0.00739523 0.032149933 0.0639404 0.014138162 -0.06801842 -0.02153176 -0.026935712
0.07322844 -0.034438085 0.068820365 0.0109908655 0.036388997 0.08444621 0.041499734 0.008314704
0.048617803 0.056555483 0.025296107 -0.015602714 0.04177314 0.056535177 -0.07084141 0.0799139
-0.07350782 0.02198562 0.0027837397 -0.05255208 0.021410223 -0.047248065 -0.03592711 0.009047396
0.08420809 -0.042521805 -0.061970867 -0.0039098486 -0.01942518 0.048657622 0.0067064464 -0.0026395246
0.06341723 -0.010821372 -0.04855057 -0.05508165 0.04294025 -0.0007615897 0.010066453 -0.0044234097
-0.075727485 0.0035925433 -0.071525715 0.0033803284 0.013545275 -0.017410118 0.03290963 0.07173116
-0.014811456 0.074102975 -0.008842143 -0.04076581 -0.009950552 0.08843813 -0.034523424 -0.044346996
0.019134581 -0.025365727 -0.05585898 -0.04570171 -0.070391566 0.033146385 -0.02310039 0.05254763
0.028152429 -0.010429785 -0.049172822 -0.08564373 -0.0060717165 0.071437724 -0.07244827 0.06647343
-0.085640855 -0.05229623 0.03259744 -0.019635081 0.059292965 -0.043220367 0.08823434 -0.0038947985
0.022857599 0.06528424 0.04231857 -0.030497149 -0.024415836 0.03859418 -0.0664255 -0.046738654
0.009424433 0.034850758 0.009242242 0.048807763 0.0038206354 -0.055491444 -0.019141592 -0.0626919
-0.059040427 0.0024499744 -0.0496345 0.054740816 -0.028797124 -0.022964057 -0.038339864 -0.03768456
0.020018356 0.021836175 -0.07647058 0.051163148 0.05307237 0.04441774 0.03964478 0.011843413
-0.015337437 0.01554589 -0.016911982 0.06296862 0.065191574 0.02855839 0.026353255 -0.06261644
-0.05434715 -0.0070125014 0.03372412 0.011992067 -0.07208655 0.07871097 -0.07180976 -0.0026063256
-0.0017206147 -0.005931207 0.057212304 -0.014317168 0.08859107 -0.075819075 -0.04105471 -0.03499279
0.008856054 0.0029557457 0.00594496 -0.06977545 0.01660955 0.003645137 0.011379436 -0.0860986
0.035592437 -0.03304517 0.018945506 0.057899117 -0.069836535 -0.025798082 -0.06575492 0.059304677
0.036125805 0.053111725 0.07452782 0.00943961 0.07172662 0.0046149595 0.033945292 0.074504785
-0.03315109 0.05858774 0.033188865 0.050300326 0.09148653 0.06094315 -0.007335417 -0.034924433
-0.06993777 0.045218468 0.06739568 0.0061055464 -0.054389976 0.07696123 -0.02318285 0.040784836
0.05685482 -0.030872304 0.07561097 0.036882 0.017988846 -0.018558297 -0.088912435 -0.03117202
-0.008232517 0.06292754 -0.01574535 -0.023255773 0.0049770316 0.0043814657 0.028123438 0.0031930313
0.06606796 0.025607383 -0.021778254 -0.0860076 -0.08407967 0.018685311 0.07389138 -0.024355743
-0.05355367 -0.07017664 0.05502491 -0.011807181 0.03955829 0.061024286 0.07201675 0.06963449
-0.022282002 -0.052029062 -0.0076054744 -0.050905537 0.034361243 -0.005879417 0.055000164 0.042527612
00000000: 82da 0abd eb98 983d eac2 95bd ccb4 233c
00000010: a287 033d f425 febc a0c3 c03c 25a2 98b9
00000020: d7d1 80bd 0cb7 50bd 6a3e 4f3d 4e04 b53b
00000030: 8f57 58bc 1496 c73c 449a 0fbd 22a0 0a3c
00000040: d0e6 cb3b 580c 283d 1205 bfbb e9f4 ccbc
00000050: 1a69 3abd 256b 39bd 0001 5bbb 319d 89bd
00000060: e1ce 2abd 620c 95bc 71cc 85bc 4a9b 4abd
00000070: 0437 67bd c09b abbc 9203 783d c6f8 0ebc
00000080: b4ea 8a3d af53 f23b a6af 033d 2ff3 823d
00000090: c0a3 673c 3e4d 8bbd 6063 b0bc 48a8 dcbc
000000a0: cbf8 953d f30e 0dbd b1f1 8c3d 0813 343c
000000b0: a10c 153d 22f2 ac3d a0fb 293d 653a 083c
000000c0: 7623 473d b9a6 673d c839 cf3c 87a2 7fbc
000000d0: 501a 2b3d 6e91 673d 4d15 91bd e6a9 a33d
000000e0: 458b 96bd 301b b43c 676f 363b da40 57bd
000000f0: 7e64 af3c 3087 41bd 4e28 13bd 873b 143c
00000100: 4b75 ac3d 582b 2ebd 2ad5 7dbd 301e 80bb
00000110: 8e21 9fbc 374d 473d c0c1 db3b e0fb 2cbb
00000120: e5e0 813d 204c 31bc f6dc 46bd 4c9d 61bd
00000130: 1ee2 2f3d 6ba5 47ba c4ed 243c 40f2 90bb
00000140: 0317 9bbd e070 6b3b 137c 92bd 8088 5d3b
00000150: 00ed 5d3c aa9f 8ebc 40cc 063d c9e7 923d
00000160: c0ab 72bc 4dc3 973d a3de 10bc 0dfa 26bd
00000170: a407 23bc 0d1f b53d 6f68 0dbd 32a5 35bd
00000180: 20c0 9c3c c9cb cfbc 63cc 64bd b731 3bbd
00000190: 7429 90bd 81c4 073d 073d bdbc 2f3c 573d
000001a0: ec9f e63c b0e1 2abc 7169 49bd fb65 afbd
000001b0: 40f5 c6bb f14d 923d c25f 94bd 3923 883d
000001c0: 7964 afbd 9234 56bd e584 053d c0d9 a0bc
000001d0: 2edd 723d d707 31bd 35b4 b43d e03f 7fbb
000001e0: dc3f bb3c beb3 853d 3d56 2d3d 28d5 f9bc
000001f0: b803 c8bc ee14 1e3d 180a 88bd 0871 3fbd
00000200: f068 1a3c abbf 0e3d c66c 173c a6ea 473d
00000210: a063 7a3b ff4a 63bd d4ce 9cbc 9c64 80bd
00000220: 60d4 71bd c08f 203b 8c4d 4bbd e837 603d
00000230: f2e7 ebbc 1e1f bcbc 430a 1dbd 205b 1abd
00000240: 89fd a33c c7e1 b23c 9c9c 9cbd 7390 513d
00000250: 6a62 593d 60ef 353d 9162 223d e00a 423c
00000260: e049 7bbc 30b4 7e3c ff8a 8abc b1f5 803d
00000270: 2983 853d 49f3 e93c c8e2 d73c 0c3d 80bd
00000280: 1e9b 5ebd 20c9 e5bb 4e22 0a3d 607a 443c
00000290: 1da2 93bd 3833 a13d ff10 93bd e3ce 2abb
000002a0: 4086 e1ba 925a c2bb 7357 6a3d 8e92 6abc
000002b0: 3c6f b53d 0847 9bbd fc28 28bd 9a54 0fbd
000002c0: fc18 113c 2fb5 413b f0cd c23b 6ee6 8ebd
000002d0: c010 883c 40e3 6e3b d070 3a3c 7654 b0bd
000002e0: 60c9 113d 5f5a 07bd 9b33 9b3c a027 6d3d
000002f0: 7506 8fbd 8056 d3bc 84aa 86bd 76e9 723d
00000300: a7f8 133d ae8b 593d 0ba2 983d 98a8 1a3c
00000310: 68e5 923d 1639 973b 380a 0b3d f795 983d
00000320: 70c9 07bd b3f9 6f3d 0cf1 073d b707 4e3d
00000330: 4a5d bb3d 869f 793d f05d f0bb ec0c 0fbd
00000340: 893b 8fbd 0037 393d bf06 8a3d 0911 c83b
00000350: 06c8 5ebd d99d 9d3d f6e9 bdbc 000e 273d
00000360: 9ae0 683d eae7 fcbc edd9 9a3d 9411 173d
00000370: 585d 933c 9207 98bc b917 b6bd 775c ffbc
00000380: aee1 06bc 27e0 803d 64fc 80bc e482 bebc
00000390: 5e16 a33b 6692 8f3b 2063 e63c 2d42 513b
000003a0: a34e 873d 93c6 d13c 4f68 b2bc c124 b0bd
000003b0: f631 acbd f011 993c 5d54 973d b285 c7bc
000003c0: 185b 5bbd c5b8 8fbd cd61 613d e872 41bc
000003d0: e007 223d 9af4 793d 857d 933d 879c 8e3d
000003e0: bf88 b6bc 6d1c 55bd 5837 f9bb 5382 50bd
000003f0: 60be 0c3d 20a8 c0bb da47 613d 6f31 2e3d

2.weight f4 [3, 256]
0.070595585 -0.060233027 0.059841685 -0.0020797201 0.052228034 0.03654398 0.02844569 -0.040513508
0.04681295 -0.040263914 -0.056369893 0.05241601 0.01591038 0.012975439 0.048835475 0.004988776
0.052584566 -0.027236484 -0.0025856318 0.0063614263 -0.04607389 0.05753541 -0.021694168 -0.04464362
0.05894251 0.043827757 -0.040222343 0.004405178 -0.0073082144 -0.0087928325 0.05747144 0.014118735
0.06351867 0.07523714 -0.028241165 0.03470122 -0.057315446 0.0130459 0.028440379 0.05974043
-0.04120359 0.021909177 0.036719665 -0.013648189 0.063754685 0.072811805 0.029632995 -0.032044258
-0.009316549 0.06489046 -0.019208997 -0.04315641 0.07378045 0.04008536 -0.02080749 0.03631995
-0.016783796 0.062302016 0.03855357 0.060919344 0.035277393 0.0401112 0.053282946 0.014514761
0.07609175 0.016748741 0.056790866 -0.059710212 0.024660118 -0.0015267938 0.0062483996 0.050351597
0.05470717 0.0065642744 -0.00992202 -0.02164092 0.043892283 0.030752443 -0.015155565 0.041354217
-0.004601687 0.008465551 -0.0017556921 -0.04931789 0.062332794 -0.046863638 -0.004432909 0.03819312
-0.013619835 -0.05685491 0.028725961 0.014742292 0.0014092573 0.06919268 -0.04862903 0.042230308
0.0062941685 -0.0278397 0.027359717 0.0060835183 0.035265736 -0.011410854 0.04967309 0.0097750835
0.037439123 -0.036787838 -0.049099386 -0.042237084 -0.03513501 -0.050226554 0.03497506 -0.025026374
0.011256911 0.043174755 -0.0027558296 0.013050988 -0.0050772876 0.056902554 0.063778825 0.013347857
0.026371628 0.021901546 -0.024972297 -0.037171148 -0.0031289235 0.014791712 -0.018157396 0.04720339
0.049101844 -0.0010746033 0.037592232 -0.014157996 0.01725699 -0.03529436 -0.036805622 -0.0063328
0.0010007636 -0.037059695 -0.024371596 0.057139676 -0.010894246 -0.052951522 0.00044217962 0.06080365
-0.015368145 -0.041544702 0.00061140954 0.0070425626 0.03799302 -0.05730401 -0.0030892605 0.016250007
-0.05431793 -0.003230743 -0.019953215 -0.02687046 0.0037870854 -0.02028179 0.060536113 0.01879307
-0.035255626 -0.0021859407 0.03455288 0.03130412 0.05134113 0.010691499 0.055190627 0.019816048
-0.0026644394 -0.0025946125 0.06257631 -0.04204187 0.0027409657 -0.03556584 -0.044587802 0.050217964
-0.037096668 0.022988986 0.033904195 0.005199313 -0.029122364 -0.00713712 0.047005713 0.013577665
-0.02059339 -0.049204282 0.051635098 0.048622675 -0.02104862 0.029576372 -0.057467207 0.047180686
-0.021572817 -0.022831209 0.07457327 -0.030292004 0.051309355 0.030917905 0.044458173 0.008776799
-0.037548915 -0.010327656 -0.027976992 -0.037669934 0.069733866 0.06139175 0.013097763 0.03793799
0.013140455 -0.044587754 -0.013378158 0.054777443 0.013034072 -0.0435467 0.029802658 -0.04042243
-0.0013142601 -0.007800281 0.060261875 0.035973858 -0.004876472 0.00043908507 0.03108187 0.013129565
0.04958692 0.038085617 0.006864753 -0.026825666 -0.014360089 -0.044353027 -0.048147693 0.037011817
0.0054430515 0.04824197 0.054627124 -0.01806751 -0.017019562 0.067880206 -0.0072307363 0.008931515
0.04114268 0.020088697 0.027456105 0.05555077 -0.04764895 -0.049665846 0.01488269 -0.04912035
-0.006086875 0.016342903 -0.03358722 -0.041457072 0.055393264 0.05271066 -0.011914064 0.018459156
00000000: 6b94 903d e8b6 76bd 8e1c 753d ea4b 08bb
00000010: 10ed 553d 24af 153d f006 e93c 7ef1 25bd
00000020: f0be 3f3d c6eb 24bd 1ee4 66bd 2cb2 563d
00000030: 7c56 823c f096 543c b507 483d e378 a33b
00000040: ea62 573d 0c1f dfbc b473 29bb 8373 d03b
00000050: fab7 3cbd 40aa 6b3d f8b7 b1bc 3adc 36bd
00000060: b46d 713d bc84 333d 2fc0 24bd 5059 903b
00000070: bf79 efbb d00f 10bc 2c67 6b3d 4452 673c
00000080: 1416 823d ee15 9a3d 045a e7bc de22 0e3d
00000090: 9ac3 6abd 78be 553c ccfb e83c 62b2 743d
000000a0: 18c5 28bd e07a b33c 5c67 163d a79c 5fbc
000000b0: d191 823d 5b1e 953d e5c0 f23c d740 03bd
000000c0: 70a4 18bc 4ae5 843d 305c 9dbc c7c4 30bd
000000d0: 341a 973d 8c30 243d 7874 aabc 3ac4 143d
000000e0: 2c7e 89bc 6630 7f3d 59ea 1d3d 9086 793d
000000f0: 077f 103d a44b 243d 383f 5a3d 52cf 6d3c
00000100: fed5 9b3d a834 893c 8a9d 683d b292 74bd
00000110: 0404 ca3c b31e c8ba 60bf cc3b 7a3d 4e3d
00000120: a014 603d 2019 d73b f88f 22bc 4c48 b1bc
00000130: 65c8 333d 8cec fb3c 0c4f 78bc 0a63 293d
00000140: c0c9 96bb 18b3 0a3c 401f e6ba 8e01 4abd
00000150: ac50 7f3d 16f4 3fbd f041 91bb 6470 1c3d
00000160: ba25 5fbc b2e0 68bd b552 eb3c a889 713c
00000170: d4b6 b83a e4b4 8d3d 3c2f 47bd b0f9 2c3d
00000180: 503f ce3b 1510 e4bc 7c21 e03c 4058 c73b
00000190: ce72 103d 97f4 3abc 0376 4b3d ac27 203c
000001a0: c459 193d d8ae 16bd 701c 49bd cb00 2dbd
000001b0: bae9 0fbd 5cba 4dbd 0242 0f3d 1c04 cdbc
000001c0: e86e 383c 03d8 303d 269b 34bb d0d3 553c
000001d0: 605f a6bb a712 693d 799e 823d f8b0 5a3c
000001e0: 5009 d83c df6a b33c b492 ccbc c640 18bd
000001f0: a00e 4dbb f058 723c d2be 94bc 5858 413d
00000200: 041f 493d b4d9 8cba 50fa 193d f0f6 67bc
00000210: 885e 8d3c d290 10bd 7ec1 16bd 6083 cfbb
00000220: 0e2c 833a e8cb 17bd f1a6 c7bc 4b0b 6a3d
00000230: c87d 32bc b2e3 58bd 58d4 e739 400d 793d
00000240: acca 7bbc c72a 2abd 0047 203a 4cc5 e63b
00000250: 929e 1b3d 9cb7 6abd 3175 4abb bc1e 853c
00000260: 7a7c 5ebd e0ba 53bb ed74 a3bc 701f dcbc
00000270: c030 783b ff25 a6bc b7f4 773d edf3 993c
00000280: 3468 10bd 0042 0fbb 5287 0d3d c038 003d
00000290: 144b 523d 662b 2f3c 910f 623d 4455 a23c
000002a0: e09d 2ebb 600a 2abb 0228 803d 1934 2cbd
000002b0: c6a1 333b 7cad 11bd b3a1 36bd 5ab1 4d3d
000002c0: adf2 17bd 6653 bc3c 20df 0a3d 005f aa3b
000002d0: 0692 eebc 80de e9bb 1089 403d db74 5e3c
000002e0: 78b3 a8bc 6e8a 49bd 537f 533d 9228 473d
000002f0: 286e acbc 264a f23c bc62 6bbd 8940 413d
00000300: 7ab9 b0bc 8408 bbbc dfb9 983d f026 f8bc
00000310: c229 523d 8c47 fd3c c619 363d 90cc 0f3c
00000320: e4cc 19bd 5435 29bc 0130 e5bc ca4b 1abd
00000330: a1d0 8e3d ea75 7b3d 0098 563c de64 1b3d
00000340: 104b 573c a6a1 36bd 1030 5bbc 505e 603d
00000350: dc8c 553c 065e 32bd b424 f43c fd91 25bd
00000360: 4043 acba 8099 ffbb 28d5 763d 5359 133d
00000370: d0ca 9fbb 0035 e639 689f fe3c 631d 573c
00000380: a71b 4b3d aaff 1b3d b9f1 e03b 80c1 dbbc
00000390: 9446 6bbc 85ab 35bd 8436 45bd b499 173d
000003a0: a05b b23b 5f99 453d b1c0 5f3d 5102 94bc
000003b0: 9c6c 8bbc c704 8b3d d0ef ecbb 7d55 123c
000003c0: 3a85 283d 0d91 a43c a0eb e03c 3489 633d
000003d0: 8c2b 43bd 6a6e 4bbd 87d6 733c 6c32 49bd
000003e0: 6974 c7bb 8de1 853c c192 09bd e4ce 29bd
000003f0: 0ce4 623d 22e7 573d 3533 43bc a837 973c

2.bias f4 [3]
0.01649161 0.036768503 -0.07421629
00000000: 6a19 873c 929a 163d b6fe 97bd
