modules/ai/model.pth (torch, 30592 bytes, 4 tensors)

0.weight f4 [256, 24]
0	0x3e018272	0.12647417
1	0xbdd3ecce	-0.10347901
2	0xbe0b41f5	-0.1359938
3	0x3d8919e4	0.06694391
4	0xbd5a85e8	-0.05335036
5	0x3e344a82	0.17606547
6	0x3d242a48	0.040079385
7	0x3d5178c0	0.051140547
8	0x3e13e646	0.14443311
9	0x3c788a50	0.015169695
10	0xbdb200c7	-0.086915545
11	0xbd4c3888	-0.0498586
12	0x3d423320	0.047412038
13	0x3e1d0270	0.15332961
14	0x3d4cd5d8	0.050008625
15	0xbd5feac8	-0.054667264
16	0x3e22f234	0.15912706
17	0x3da57784	0.080794364
18	0x3cd92728	0.026507929
19	0x3d10fe4c	0.035398766
20	0x3d3596ec	0.044333383
21	0xbd95a7ce	-0.07307397
22	0x3e1887a0	0.14895487
23	0xbc7abfa0	-0.015304476
24	0x3e496604	0.19667822
25	0x3c79f380	0.015255809
26	0x3e2a399c	0.16623539
27	0xbd8690d6	-0.06570594
28	0xbda4926f	-0.080357425
29	0x3def4598	0.11683196
30	0xbe3fc05b	-0.18725722
31	0x3e1b85a4	0.15187699
32	0xbdc69b21	-0.09697557
33	0xbe0614fc	-0.13093942
34	0x3dac15d0	0.08402598
35	0xbe291fd0	-0.16516042
36	0x3e00b648	0.12569535
37	0x3daee720	0.08540177
38	0xbe38a03a	-0.18029872
39	0xbce12e30	-0.027487844
40	0x3e09ac58	0.1344465
41	0x37b1a000	2.117455e-05
42	0x3df90c08	0.12160498
43	0x3d8d3494	0.06894794
44	0x3da5e104	0.08099559
45	0x3e19e348	0.15028107
46	0xbd0edc64	-0.03487815
47	0x3dcac230	0.099003196
48	0xbe09c65d	-0.13454576
49	0x3da660b8	0.081239164
50	0xbe068998	-0.13138425
51	0xbe039ce2	-0.12852815
52	0xbdd1cc27	-0.10244017
53	0xbcbc0ed8	-0.022956297
54	0xbdcf8fa6	-0.10134821
55	0x3d69adc8	0.057050496
56	0x3d86fe5c	0.06591484
57	0x3e2aa40c	0.16664141
58	0xbd03448c	-0.032047793
59	0xbce39200	-0.02777958
60	0xbd0fd894	-0.035118654
61	0x3d8d8a88	0.06911188
62	0xbd013448	-0.031544
63	0xbe0e0a55	-0.13871129
64	0x3dd7ba54	0.10533586
65	0xbe0e0255	-0.13868077
66	0x3b472c40	0.0030391365
67	0xbe4548ff	-0.19266127
68	0x3da77ff0	0.08178699
69	0xbce28170	-0.027649611
70	0xbdc00d34	-0.09377518
71	0xbdeea0bf	-0.11651754
72	0xbdcfe612	-0.10151304
73	0x3b88ac40	0.0041709244
74	0xbda3ee99	-0.08004493
75	0x3e46e30e	0.19422552
76	0x3d64ac90	0.05582863
77	0x3daad110	0.08340657
78	0xbda1dbd6	-0.079032585
79	0x3cebe998	0.02879791
80	0x3d423d28	0.047421604
81	0xbbef1b20	-0.0072969347
82	0x3d893fa0	0.06701589
83	0x3ddd9480	0.1081934
84	0x3d8e6614	0.069530636
85	0x3dd2b2d8	0.10288018
86	0xbe09fbb6	-0.13474926
87	0x3d706018	0.058685392
88	0xbcfa0d88	-0.03052403
89	0xbe3fd93e	-0.18735215
90	0xbdad5951	-0.084643014
91	0x3e311c18	0.17295873
92	0x3dbf8d70	0.09353149
93	0xbdccd1eb	-0.10000976
94	0xbcd7b2d0	-0.026330382
95	0xbd1d41a0	-0.038392663
96	0x3d82fa98	0.06395453
97	0xbcbb3258	-0.022851154
98	0x3dc3e684	0.09565452
99	0x3dbbc98c	0.091693014
100	0xbdf0a562	-0.11750294
101	0xbdb099f1	-0.08623112
102	0xbe175302	-0.14777759
103	0xbd8ff952	-0.07029976
104	0x3b9e32e0	0.004827842
105	0x3e1d3340	0.15351582
106	0x3d408a00	0.047006607
107	0x3db4088c	0.08790693
108	0x3e403d6e	0.18773434
109	0xbdab57e2	-0.08366372
110	0x3e252420	0.16127062
111	0x3db62310	0.088934064
112	0x3d4fba08	0.050714523
113	0x3ca02be8	0.019552186
114	0xbd3037c0	-0.043021917
115	0xbdd2d12d	-0.10293803
116	0xbe11593e	-0.141942
117	0xbcca83d0	-0.024721056
118	0x3d1954f8	0.03743455
119	0x3d386d00	0.045025826
120	0xbd223f70	-0.03961128
121	0xbd619504	-0.055073753
122	0x3e34e54e	0.17665598
123	0x3da17ec0	0.07885504
124	0xbe43ee60	-0.19133902
125	0x3e276d4a	0.16350284
126	0x3e25355c	0.16133636
127	0x3d44f7f0	0.048088014
128	0x3d8f769c	0.07005045
129	0x3da05908	0.07829481
130	0xbd94e854	-0.072708756
131	0xbe16e284	-0.14734846
132	0xbe1c4084	-0.15258986
133	0xbd7e6e28	-0.062116772
134	0x3d1226a8	0.035681397
135	0xbb8d42a0	-0.004310921
136	0xbdf4db5d	-0.11955903
137	0x3d5477c0	0.051872015
138	0xbe34e140	-0.17664051
139	0x3d90ab48	0.07063919
140	0x3e3df2f8	0.18549716
141	0xbdf3ad0e	-0.11898242
142	0xbda729fa	-0.08162303
143	0xbe12b0ba	-0.14325228
144	0x3d09be64	0.033628836
145	0x3e31fa86	0.17380723
146	0x3d8c4fb0	0.06851137
147	0xbdc09673	-0.09403696
148	0xbd87195a	-0.06596632
149	0x3dbf805c	0.093506545
150	0x3e3034ce	0.17207643
151	0x3d8924d0	0.066964746
152	0x3d4138e8	0.04717341
153	0xbe2edfba	-0.17077532
154	0xbdda08b4	-0.10646191
155	0x3df5e578	0.12006658
156	0xbe39e126	-0.18152294
157	0xbd45a2e0	-0.048251033
158	0x3cf03588	0.0293224
159	0x3da4a88c	0.0803996
160	0x3e1464f0	0.1449163
161	0xbe411884	-0.18857008
162	0x3c750bd0	0.01495643
163	0x3e1282aa	0.14307657
164	0xbda8af31	-0.0823654
165	0x3de8b610	0.11362851
166	0xbcebe148	-0.028793946
167	0x3ceb1018	0.028694198
168	0xbe2b9e01	-0.16759492
169	0x3dad52b8	0.08463043
170	0x3e00a3ba	0.12562457
171	0xbd0a7f2c	-0.033812687
172	0x3dea91a4	0.1145356
173	0xbcf0f610	-0.029414207
174	0xbc6de020	-0.014518768
175	0xbd6e0294	-0.058107927
176	0x3e391f62	0.18078378
177	0x3ceebf28	0.029143885
178	0x3e0b6fac	0.13616818
179	0xbdbc35b8	-0.091899335
180	0x3dd61f74	0.10455218
181	0x3d2cab4c	0.04215555
182	0xbd7ba7b8	-0.061439246
183	0x3e145a06	0.14487466
184	0xbe3d284f	-0.18472408
185	0x3d2f02e8	0.04272738
186	0xb950ac00	-0.00019900501
187	0xbe1dd6ad	-0.15413924
188	0x3d9d89e8	0.07692319
189	0xbe20e517	-0.15712391
190	0x3e30756c	0.17232293
191	0x3d7ef4d0	0.06224519
192	0xbd13bc7c	-0.036068425
193	0x3e29cadc	0.16581291
194	0x3c543f00	0.0129544735
195	0x3d4968c8	0.049172193
196	0x3e450994	0.19241935
197	0xbe495e15	-0.19664796
198	0xbd530f20	-0.051528096
199	0x3e120960	0.14261389
200	0x3daf220c	0.08551416
201	0xbdfbed00	-0.123010635
202	0xbe3e73aa	-0.1859881
203	0x3ca8a8c0	0.020588279
204	0x3a689d00	0.00088734925
205	0xbd9bb8a8	-0.0760358
206	0x3d68f280	0.05687189
207	0x3df8ba38	0.121448934
208	0xbdd79363	-0.10526159
209	0x3e4b7dec	0.19872254
210	0xbd846c7e	-0.06466006
211	0x3e24e1b8	0.1610173
212	0x3e036c1c	0.12834209
213	0xbd134a24	-0.035959378
214	0x3d94d9f8	0.07268137
215	0x3d958700	0.0730114
216	0xbe5008a1	-0.20315792
217	0xbcb6c950	-0.02231279
218	0x3d2896f8	0.0411596
219	0xbe08e014	-0.13366729
220	0x3e501588	0.20320714
221	0x3e17f5bc	0.14839834
222	0xbd9c98fa	-0.076463655
223	0xbd5d3398	-0.05400428
224	0x3e060d10	0.1309092
225	0x3de4f170	0.11178863
226	0x3dac1cd0	0.08403933
227	0x3e2d12f8	0.16901767
228	0x3d438e98	0.04774341
229	0x3e2a5bb4	0.16636544
230	0x3d0c4764	0.03424777
231	0x3dc2615c	0.09491226
232	0x3da65d7c	0.081232995
233	0xbe234e8c	-0.15947932
234	0xbe50cfad	-0.20391722
235	0xbdb2a3f0	-0.08722675
236	0x3e476fce	0.19476244
237	0xbe426ceb	-0.18986861
238	0x3d80dfe8	0.06292707
239	0xbd11c5d4	-0.035589054
240	0x3e2d43a2	0.16920331
241	0xbe0c3181	-0.13690759
242	0x3e1b7df6	0.15184769
243	0x3d97fd3c	0.074213475
244	0x3d8219f0	0.063526034
245	0xbb59e700	-0.003324926
246	0xbe171578	-0.14754283
247	0x3e0eea72	0.13956621
248	0xbdb3b5dc	-0.08774921
249	0x3b90b820	0.0044164807
250	0xbdc44e9a	-0.095853046
251	0x3e44e9d2	0.1922982
252	0xbc8fe0c8	-0.017563239
253	0xbe21ceb8	-0.15801513
254	0xbd2549b8	-0.040353507
255	0xbd098894	-0.033577517

0.bias f4 [256]
0	0x3e080288	0.13282216
1	0x3d94f6cc	0.07273635
2	0x3e387f80	0.18017387
3	0xbc9a3db0	-0.018828243
4	0xbe3e894e	-0.18607065
5	0x3d8e2558	0.069407165
6	0x3d766ae8	0.060160547
7	0xbd871680	-0.065960884
8	0x3d920ee8	0.071317494
9	0x3df53890	0.11973679
10	0xbd16273c	-0.03665851
11	0xbe1b6794	-0.1517623
12	0xbe479ff3	-0.1949461
13	0xba9e9600	-0.0012099147
14	0x3cc510b8	0.024055824
15	0x3e2d07ac	0.16897458
16	0x3dd84268	0.10559541
17	0x3e03d6f8	0.12874973
18	0x3d042d88	0.032269984
19	0xbe15c82b	-0.1462714
20	0xbe4961ea	-0.19666258
21	0xbe28a769	-0.16470112
22	0xbcac9548	-0.021067277
23	0x3e4356ae	0.19076034
24	0xbe0ea76e	-0.13931057
25	0xbddf4973	-0.10902681
26	0xbe35c9e5	-0.17752798
27	0x3cf6d778	0.03013204
28	0x3d50e6a0	0.05100119
29	0x3d861ac8	0.06548077
30	0x3e020520	0.12697268
31	0x3e4d27ca	0.2003471
32	0xbdf3e928	-0.119097054
33	0xbe46dfba	-0.19421282
34	0x3e21bb9a	0.1579422
35	0x3e099bda	0.13438359
36	0xbd9c1efa	-0.07623096
37	0x3d2005f0	0.039068162
38	0xbb812880	-0.0039415956
39	0x3e4dc19c	0.20093387
40	0x3dd99150	0.10623419
41	0xbdf36fb1	-0.11886538
42	0x3cf834a0	0.030298531
43	0xbe2d2214	-0.16907531
44	0x3dcda6e4	0.100415975
45	0xbe187b17	-0.14890705
46	0x3cf1afe0	0.029502809
47	0xbe18599e	-0.14877936
48	0xbe452126	-0.19250926
49	0xbe276780	-0.16348076
50	0xbdd147b3	-0.10218754
51	0xbc897548	-0.016779557
52	0x3da5b3e8	0.08090955
53	0xbd9fe136	-0.078066275
54	0xbe0b361e	-0.13594863
55	0xbe44215e	-0.19153354
56	0x3e1cd848	0.1531688
57	0x3e4cdca2	0.2000604
58	0x3c3a0e90	0.011356011
59	0x3e4ea488	0.20179951
60	0xbe44e1f9	-0.19226827
61	0x3e4a88cc	0.19778746
62	0xbc54c0d0	-0.012985423
63	0xbcef06d0	-0.029178053
64	0xbdcb1c20	-0.09917474
65	0x3defd640	0.11710787
66	0x3e0ab482	0.13545421
67	0xbdceaf8f	-0.10092079
68	0x3e3217f8	0.17391956
69	0xbd62e9dc	-0.055398807
70	0xbd56d6cc	-0.05245094
71	0xbe2ce9c8	-0.16886055
72	0xbe3f3613	-0.18672971
73	0x3dbcefdc	0.09225437
74	0xbdde70bf	-0.10861348
75	0xbcf2e8c8	-0.029652014
76	0xbe28665c	-0.16445297
77	0xbde699bd	-0.11259792
78	0x3d9803a0	0.074225664
79	0xbd046154	-0.03231938
80	0x3dda1450	0.106484056
81	0xbdf367a7	-0.118850045
82	0x3d234364	0.03985919
83	0x3dc2b724	0.095075876
84	0xbde17486	-0.11008553
85	0x3dbfeb98	0.09371108
86	0xbe4561e5	-0.19275625
87	0xbc354410	-0.011063591
88	0x3e19ca28	0.15018523
89	0x3dc092f8	0.09403032
90	0xbd0358d0	-0.03206712
91	0xbcc4b7a0	-0.02401334
92	0xbcc38cc8	-0.02387084
93	0xbe49eb8f	-0.19718765
94	0x3dcd13d8	0.100135505
95	0xbc7f73b0	-0.015591547
96	0x3e10ca78	0.14139736
97	0xbd236a94	-0.039896563
98	0x3e354532	0.17702177
99	0xbe363532	-0.1779373
100	0x3e2b8dc6	0.16753301
101	0x3ae2c580	0.0017301291
102	0x3d4f05f0	0.05054277
103	0x3de8d948	0.11369568
104	0x3e2dac68	0.16960299
105	0x3e3a4962	0.18192056
106	0x3e35db7e	0.17759511
107	0x3dc20900	0.09474373
108	0xbe2f822e	-0.17139503
109	0xbe2e7f5f	-0.17040776
110	0xbe337f7c	-0.175291
111	0x3e07ac18	0.13249242
112	0x3a042f00	0.0005042404
113	0xbdf2bbc8	-0.11852223
114	0x3ce2bf90	0.027679235
115	0xbb2d4440	-0.0026438385
116	0xbcf59870	-0.029979914
117	0x3e1b071c	0.15139431
118	0x3d9d5944	0.07683042
119	0xbe37e5f2	-0.17958811
120	0xbd9e0758	-0.077162445
121	0x3dc6d890	0.09709275
122	0x3e39eae0	0.18156004
123	0x3d9d06bc	0.076673
124	0x3e299698	0.16561353
125	0xbe42510b	-0.18976228
126	0xbe4eb43f	-0.20185946
127	0xbc531410	-0.012883201
128	0x3c8c3d18	0.017118976
129	0xbe4fddb3	-0.20299415
130	0x3e4b1400	0.19831848
131	0xbc3737a0	-0.011182696
132	0xbe34ef96	-0.1766952
133	0xbc9968a8	-0.018726662
134	0x3db8d698	0.090253055
135	0x3bb6d920	0.0055800825
136	0xbd8beeb4	-0.068326384
137	0x3e025c22	0.12730458
138	0x3d2ea090	0.042633593
139	0x3e247604	0.16060644
140	0x3e475ad0	0.19468236
141	0xbab89000	-0.0014081001
142	0xbda695b2	-0.08134021
143	0xbe467d17	-0.19383655
144	0xbddd61e2	-0.10809685
145	0xbdccc1b4	-0.099978834
146	0xbc8408a8	-0.016117409
147	0x3e449598	0.1919769
148	0xbb9b5ac0	-0.004741043
149	0xbe20887e	-0.15677068
150	0x3e3f785e	0.1869826
151	0x3d03d504	0.03218557
152	0x3d82d8c8	0.06389004
153	0xbe3151ef	-0.17316411
154	0x3d147684	0.036245838
155	0x3d875518	0.06608027
156	0xbe39c340	-0.18140888
157	0x3caa46d0	0.02078572
158	0x3e3a042c	0.18165654
159	0x3dc060dc	0.093934745
160	0x3dee5bf0	0.116386294
161	0x3e2e03f8	0.16993701
162	0xbcb20a70	-0.021733493
163	0xbe23717e	-0.15961263
164	0x3d25de3c	0.040495142
165	0xbe329bb5	-0.1744221
166	0xbddd2e5b	-0.10799857
167	0xbe4d7638	-0.20064628
168	0xbdefca07	-0.117084555
169	0x3b666200	0.0035153627
170	0xbd97a190	-0.074038625
171	0x3e42ac06	0.19010934
172	0x3cc5fee0	0.024169385
173	0xbdb0b8e7	-0.08629017
174	0xbd983ccc	-0.07433471
175	0x3e0db9ee	0.13840458
176	0xbda40d79	-0.08010382
177	0xbe018b48	-0.12650788
178	0xbde46715	-0.11152474
179	0xbe25d9b0	-0.16196322
180	0xbd9dd276	-0.07706158
181	0xbe1b6de2	-0.15178636
182	0x3e50a1a8	0.20374167
183	0xbc143510	-0.009045854
184	0xbdc08a75	-0.094014086
185	0x3e4df9f0	0.20114875
186	0x3e0561fa	0.13025656
187	0xbcb58968	-0.022160247
188	0xbdd9dc24	-0.106376916
189	0xbcc09f70	-0.023513526
190	0x3e2fa33e	0.17152116
191	0x3d3bd7f8	0.04586026
192	0xbe248faa	-0.16070428
193	0x3dd9b0d4	0.106294304
194	0xbe2409a2	-0.160193
195	0xbaf8c380	-0.0018979162
196	0xbe0691a0	-0.13141489
197	0xbdc98882	-0.0984049
198	0xbc87e668	-0.016589358
199	0xbdd7068e	-0.10499297
200	0xbda5ed72	-0.0810193
201	0xbe00017c	-0.12500566
202	0x3d71c048	0.059021264
203	0xbcb2df70	-0.021835059
204	0xbc76d6b0	-0.015065834
205	0x3e1168cc	0.14200133
206	0x3e060336	0.13087162
207	0x3d88a4f0	0.06672084
208	0x3e23d0ec	0.15997666
209	0x3e379e46	0.1793147
210	0x3df5abe8	0.11995679
211	0xbe01fa2e	-0.12693092
212	0xbdb56c82	-0.08858587
213	0x3de2f544	0.11081937
214	0xbcdbb530	-0.026819795
215	0xbe35bff0	-0.17749
216	0xbe0bc23a	-0.1364831
217	0x3d5992d0	0.053118527
218	0xbe35d773	-0.17757969
219	0x3cd17ab0	0.025571197
220	0xbe2c5a54	-0.16831332
221	0xbd5f3518	-0.054493994
222	0x3e44449e	0.191668
223	0xbe4e9cf2	-0.20177057
224	0xbe4b86bc	-0.19875616
225	0xbdc67e07	-0.096920066
226	0x3dd1add8	0.10238236
227	0xbe04bffb	-0.1296386
228	0xbe4a54f2	-0.19758967
229	0x3ddfa670	0.10920417
230	0x3e167bfc	0.14695734
231	0x3db17748	0.08665329
232	0x3e1236fc	0.14278787
233	0xbd8632dc	-0.065526694
234	0x3d812938	0.0630669
235	0x3db7d308	0.08975798
236	0xbe4ab260	-0.19794607
237	0x3e4ed238	0.2019738
238	0x3db0a5a0	0.086253405
239	0xbe1d7b42	-0.1537905
240	0xbddc3bc1	-0.10753585
241	0x3c5fe320	0.013664991
242	0xbbc0a4c0	-0.0058790147
243	0xbe06d352	-0.1316655
244	0x3e3c149a	0.18367234
245	0x3d8c0b40	0.06838083
246	0xbe2f5538	-0.17122352
247	0xbe0cebcc	-0.13761824
248	0x3e50704a	0.20355335
249	0x3e3d50b8	0.18487823
250	0xbe0261dc	-0.12732643
251	0x3e33a390	0.17542863
252	0xbe150cf4	-0.14555722
253	0xbdef33aa	-0.11679776
254	0xbb000f80	-0.0019540489
255	0xbcf06180	-0.029343367

2.weight f4 [3, 256]
0	0x3ca13f94	0.019683637
1	0x3d1db82e	0.038505726
2	0xbc9d8d3c	-0.019232385
3	0x3c76c810	0.015062347
4	0xbd553a8a	-0.05205778
5	0xbd2fa90c	-0.042885825
6	0xbd043904	-0.032280937
7	0x3d33deb4	0.043913558
8	0x3ba76010	0.005107887
9	0x3d65beec	0.05609028
10	0xbca8a514	-0.020586528
11	0xbcb9b0c8	-0.022667304
12	0x3d49b032	0.0492403
13	0x3d49884e	0.049202256
14	0xbce36714	-0.027759112
15	0x3c757388	0.014981158
16	0x3d07cbd0	0.033153355
17	0xbd782902	-0.060585983
18	0xbd57d5a0	-0.052693963
19	0x3d759d74	0.059964612
20	0x3c489538	0.012242608
21	0xbc081c90	-0.008307591
22	0xbcba629c	-0.022752099
23	0xbd57d3de	-0.052692287
24	0x3cb35c3c	0.021894567
25	0xbd413d00	-0.047177315
26	0xbcb3f2dc	-0.02196639
27	0x3cd015d4	0.025401033
28	0xbd088798	-0.033332437
29	0xba0cb400	-0.0005367398
30	0x3d11d2da	0.035601474
31	0xbd6b7daa	-0.05749289
32	0xbd43c266	-0.047792815
33	0x3a8cef00	0.001075238
34	0xbc93ff04	-0.018065937
35	0xbcd95b88	-0.026532903
36	0x3d7876f8	0.060660332
37	0x3b6641e0	0.003513448
38	0xbc578760	-0.0131548345
39	0xbd2b9d58	-0.0418981
40	0x3d1073f4	0.03526683
41	0x3be32f40	0.006933123
42	0xbce42c38	-0.027853116
43	0xbc612740	-0.013742268
44	0xbd448958	-0.047982544
45	0x3d2cea66	0.042215727
46	0xbd6bc57e	-0.05756139
47	0x3cab4c0c	0.020910285
48	0x3d210ce2	0.039318927
49	0x3c8d6074	0.017257906
50	0x3c308e38	0.010776095
51	0x3d06ad22	0.032879956
52	0xbc635a10	-0.013876453
53	0xbd48afc0	-0.048995733
54	0xbcc47f64	-0.023986526
55	0xbcfcd2d4	-0.03086225
56	0x3cd32760	0.025775611
57	0xbd5a6aee	-0.053324632
58	0x3d30567a	0.04305122
59	0xbc8ab920	-0.016933978
60	0xbb85afc0	-0.004079789
61	0x3d687d52	0.05676014
62	0xbd01ac78	-0.03165862
63	0xbd3f76c4	-0.046744123
64	0xbcc998dc	-0.024609022
65	0xbad7e500	-0.0016471446
66	0xbc19f4a8	-0.0093967095
67	0xbd331924	-0.043725148
68	0x3d26853c	0.040654406
69	0x3d4b9776	0.04970499
70	0xbd644a0e	-0.055734687
71	0x3d4a350a	0.04936699
72	0x3ba31420	0.0049767643
73	0xbd6ed5ba	-0.058309294
74	0x3c735c18	0.0148535
75	0x3cf055a0	0.029337704
76	0xbceb7e8c	-0.028746866
77	0xbd02e050	-0.031952202
78	0x3cb2511c	0.021767192
79	0xbc0557f0	-0.008138642
80	0x3d24359c	0.04009019
81	0x3c233f90	0.009963885
82	0xbc7666a8	-0.015039124
83	0xbd69e43a	-0.05710242
84	0xbd6d5070	-0.05793804
85	0x3d18f9a4	0.03734745
86	0x3ca2a638	0.01985465
87	0x3d461e0c	0.0483685
88	0xbc537ca8	-0.012908138
89	0x3ab609c0	0.0013888404
90	0x3c9b9bb0	0.018995136
91	0xbc7ca2e8	-0.015419699
92	0xbd5ff172	-0.05467362
93	0xbccec03c	-0.025238149
94	0x3adff400	0.0017086267
95	0xbd71a060	-0.058990836
96	0x3acbf2c0	0.0015560016
97	0x3d37b544	0.044850603
98	0xbd754e18	-0.05988893
99	0x3c80d028	0.015724257
100	0xbcc730ec	-0.02431532
101	0xbd7c507a	-0.061600186
102	0x3d70293c	0.058633074
103	0x3ce8ee94	0.028434075
104	0x3d71fa70	0.059076726
105	0xbcbac324	-0.022798128
106	0x3b43eee0	0.002989702
107	0xbcfd7cf4	-0.030943371
108	0xbd524104	-0.051331535
109	0x3ca8b800	0.02059555
110	0x3c8003b8	0.015626773
111	0xbd1a1762	-0.037619956
112	0x3ce33984	0.027737387
113	0xbd79ee2e	-0.06101816
114	0x3d72226a	0.05911485
115	0x3ba5bf10	0.005058177
116	0x3d3449f2	0.044015832
117	0x3d26680a	0.040626563
118	0x3d3b1326	0.04567256
119	0x3d0d5932	0.03450889
120	0xbd335d14	-0.043789938
121	0xbcd52bb0	-0.026021808
122	0x3d392f12	0.045210905
123	0x3b8538a0	0.004065588
124	0xbd2a3b3c	-0.041560397
125	0xbd2a5e3c	-0.041593775
126	0xbca1f90c	-0.019772075
127	0xbd6c59da	-0.057702877
128	0xbd119ede	-0.0355519
129	0x3d67b3de	0.05656802
130	0xbd473e7c	-0.048643574
131	0xbc8c928c	-0.017159723
132	0x3d3d37ba	0.046195723
133	0xbd39c35a	-0.045352317
134	0xbb4af260	-0.003096722
135	0x3d604412	0.054752417
136	0x3d361dbe	0.044461958
137	0xbcf6756c	-0.030085288
138	0xbc920704	-0.017825611
139	0xbc549340	-0.01297456
140	0x3d52d6c0	0.051474333
141	0xbd5db448	-0.054127008
142	0x3c86337c	0.016381972
143	0xbc35d650	-0.011098459
144	0xbd1ad9aa	-0.037805237
145	0xbd71a7f8	-0.058998078
146	0x3ce5b4d4	0.028040327
147	0xbd69ff60	-0.05712831
148	0xbc11c420	-0.0088968575
149	0x3d172140	0.036896944
150	0xbd3e176e	-0.046409063
151	0x3d763906	0.060112976
152	0x3bfd10a0	0.007722929
153	0xbd205a1e	-0.039148442
154	0xbd33e624	-0.04392065
155	0xbc42f720	-0.0118997395
156	0x3ac673c0	0.0015140697
157	0xbd182da8	-0.037152916
158	0xbce69f9c	-0.02815228
159	0xbc1930f0	-0.0093500465
160	0x3d5de75a	0.054175712
161	0xbd06a11c	-0.03286849
162	0x3bd8d0a0	0.006616667
163	0xbc80b668	-0.015711978
164	0xbd6b2df6	-0.05741688
165	0xbd2bbc22	-0.041927464
166	0xbd75ab82	-0.059978016
167	0xbcb6ad54	-0.022299446
168	0x3ce393fc	0.027780525
169	0xbcd9dd30	-0.026594728
170	0x3c322bb0	0.010874674
171	0x3d63e1e6	0.055635355
172	0x3cfb7f4c	0.030700348
173	0xbc8947f8	-0.01675795
174	0xbc74e008	-0.014945991
175	0xbc9ab5d0	-0.018885523
176	0x3c570868	0.013124563
177	0x3b0f9660	0.00219097
178	0x3d0e7a56	0.034784637
179	0x3d7f882e	0.06238573
180	0x3cb8db44	0.022565491
181	0x3d3761be	0.04477095
182	0x3d7e6d38	0.062115878
183	0xbce5187c	-0.027965777
184	0x3d73f882	0.059563167
185	0x3d055938	0.03255579
186	0x3afee340	0.0019446388
187	0xbcfbd7ec	-0.030742608
188	0xbbc42600	-0.0059859753
189	0xbc6ca000	-0.014442444
190	0x3d51da3a	0.051233508
191	0xbd59a614	-0.0531369
192	0x3c4fa088	0.012672551
193	0xbd0017c0	-0.03127265
194	0x3d2e4f86	0.04255631
195	0x3d3c7cb6	0.04601737
196	0x3bbc6440	0.0057492554
197	0x3d37fbea	0.04491798
198	0xb5f30000	-1.8104911e-06
199	0xbce4d0f0	-0.02793166
200	0xbcc290ac	-0.023750626
201	0xb7ca7000	-2.413243e-05
202	0x3d2f1da8	0.04275289
203	0x3d7899f6	0.060693704
204	0xbd2ec288	-0.04266599
205	0x3d14b3b4	0.03630419
206	0x3d0b9cc0	0.034085035
207	0xbd569148	-0.052384645
208	0xbd49f070	-0.049301565
209	0xbcd39564	-0.025828071
210	0xbce47384	-0.027887113
211	0xbd0447f2	-0.032295175
212	0xbd3d499e	-0.046212785
213	0xbd0ec35a	-0.03485427
214	0x3c726b68	0.014796115
215	0x3d1c9b74	0.03823419
216	0xbd35dca0	-0.044399858
217	0x3d79c274	0.06097646
218	0xbb9b7ce0	-0.004745111
219	0xbd64c1a8	-0.055848747
220	0xbb855480	-0.004068911
221	0xbd57905a	-0.0526279
222	0xbd1c9d68	-0.03823605
223	0xbb4d1fc0	-0.0031299442
224	0xbd3ebf12	-0.046568938
225	0x3d6e50fe	0.05818271
226	0x3d314bc0	0.04328513
227	0xbd0e6f86	-0.034774326
228	0x3d7ff3ac	0.062488243
229	0x3cff3d28	0.031157091
230	0xbd5a7f04	-0.053343788
231	0x3d451fd2	0.04812605
232	0x3d33c962	0.043893225
233	0xbd6e5270	-0.058184087
234	0x3c0edd78	0.008719794
235	0xbcf399a0	-0.02973634
236	0xbc074f20	-0.008258611
237	0xbd6e8844	-0.05823542
238	0xbcb40618	-0.021975562
239	0xbd64a2ee	-0.055819444
240	0xbc77b1d0	-0.015118077
241	0x3d3b7738	0.045767993
242	0xbc2422e0	-0.0100180805
243	0x3d40c0da	0.047058918
244	0x3ae580c0	0.0017509684
245	0xb8d58800	-0.000101819634
246	0x3cf16f90	0.029472142
247	0xbd77b578	-0.060475796
248	0xbd07b728	-0.033133656
249	0x3d344acc	0.044016644
250	0xbcb1720c	-0.021660827
251	0x3d56029e	0.05224859
252	0xbd05f852	-0.03270752
253	0xbd68dd18	-0.056851476
254	0xbd5c7144	-0.053818956
255	0xbb1b73c0	-0.0023720115

2.bias f4 [3]
0	0xbd2b2e36	-0.041792117
1	0xbd60bd1c	-0.05486785
2	0xbd2dce9a	-0.04243336
